analog/best_model.pkl (torch_old, 87175 bytes, 9 tensors)

weight f4 [15, 15]
0	0x3f167c52	0.5878345
1	0xbd146052	-0.03622467
2	0x3e05dc47	0.1307231
3	0xbe8bd734	-0.27312624
4	0xbf209d39	-0.627399
5	0x3cb35832	0.02189264
6	0x36c52300	5.875132e-06
7	0xbf4d5dac	-0.80221057
8	0x3dc0bbba	0.09410806
9	0xbeea7b0c	-0.45797002
10	0xbde78370	-0.113043666
11	0xbeb1fa27	-0.34761164
12	0xbf427a5e	-0.7596797
13	0xbed05904	-0.40692914
14	0xbeae1a4e	-0.34004444
15	0x3e36ead4	0.17863017
16	0x3ede05f0	0.43363905
17	0x3e9761b3	0.29566726
18	0xbeb6f79e	-0.35735792
19	0xbee57ce8	-0.44821858
20	0xbd9966a9	-0.07490284
21	0xbe21dca6	-0.15806827
22	0xbe9fe01b	-0.31225666
23	0xbede0387	-0.43362066
24	0xbe11ad9f	-0.14226387
25	0x3e7e1237	0.24811636
26	0x3e4dacda	0.20085469
27	0xbe4a2847	-0.19741927
28	0x3ec8ec80	0.39242935
29	0xbdd95638	-0.10612148
30	0x3e5daeae	0.21648666
31	0x3eb35eb4	0.3503319
32	0xbdaa7bab	-0.08324369
33	0x3e917332	0.284082
34	0xbc5d81c9	-0.013519713
35	0xbf0af7ed	-0.54284555
36	0xbef0b896	-0.47015828
37	0x3e51a5c8	0.20473397
38	0xbe04134a	-0.12897983
39	0xbf15246d	-0.58258706
40	0xbead074c	-0.3379463
41	0xbb916d49	-0.0044380766
42	0xbe7d9c49	-0.2476665
43	0xbee50e8d	-0.44737664
44	0x3de3cb75	0.11122791
45	0xbebfcbbf	-0.37460133
46	0x3ea80442	0.32815748
47	0x3dad1081	0.084504135
48	0x3ed0191d	0.4064416
49	0xbe20006c	-0.15625161
50	0xbe9357b7	-0.2877786
51	0xbe376e36	-0.17913136
52	0xbe1acbaf	-0.15116762
53	0xbee259b2	-0.44209057
54	0x3e7a384f	0.24435543
55	0xbe04579d	-0.12924047
56	0xbef5a972	-0.4798084
57	0xbdcdfd10	-0.100580335
58	0xbe589986	-0.21152315
59	0x3e1ccd80	0.15312767
60	0xbd1a7dfe	-0.03771781
61	0x3e88d68f	0.26726195
62	0xbdf17c22	-0.117912546
63	0xbd1d9688	-0.038473636
64	0x3e8fb19a	0.28065187
65	0xbe2285c2	-0.15871337
66	0x3e0509d9	0.12992038
67	0xbe5169c7	-0.20450507
68	0x3e479df1	0.19493844
69	0xbec63dd0	-0.38719034
70	0x3eb4d967	0.35322115
71	0x3e61e5c4	0.22060305
72	0xbda20aed	-0.0791224
73	0xbd906767	-0.070509724
74	0x3d852c38	0.06502575
75	0xbf063d57	-0.5243735
76	0xbd7aa16b	-0.061189096
77	0x3dde9e6e	0.10870062
78	0xbe9d64cd	-0.30740967
79	0x3df07e69	0.11742861
80	0x3ec4897c	0.38386142
81	0x3b0e4251	0.0021707008
82	0x3f0f2634	0.5591767
83	0x3de5c61d	0.11219428
84	0x3e569acb	0.20957486
85	0x3d93cb92	0.07216562
86	0x3eb82ba7	0.35970804
87	0x3ef9ab20	0.4876337
88	0x3db09219	0.08621616
89	0x3ea6a940	0.32551003
90	0xbe832408	-0.25613427
91	0xbdaecf13	-0.0853559
92	0xbe94cf01	-0.2906418
93	0x3e12cb14	0.1433528
94	0xbe805e84	-0.2507211
95	0xbd9f4896	-0.077775165
96	0x3f20228b	0.6255271
97	0xbf294e0f	-0.6613473
98	0x3e350623	0.17678122
99	0x3ea49da9	0.32151535
100	0x3e82be10	0.2553563
101	0xbe32c3cd	-0.17457505
102	0x3d9e5a0a	0.07732017
103	0xbb77b010	-0.003779415
104	0x3c99e5d0	0.018786341
105	0xbf6550fe	-0.8957671
106	0xbf06297e	-0.5240706
107	0xbe68185d	-0.22665544
108	0xbeadcd3e	-0.3394565
109	0xbebeb3e6	-0.37246627
110	0xbed47656	-0.41496533
111	0xbf723efc	-0.94627357
112	0x3f021b82	0.50823224
113	0xbe0583f9	-0.13038625
114	0x3e55aca3	0.20866637
115	0x3e62bc4f	0.22142147
116	0xbe4144cd	-0.18873902
117	0x3de205c7	0.11036258
118	0xbecde8f6	-0.40216798
119	0xbef50c9d	-0.47861186
120	0xbebc1e7a	-0.36742002
121	0xbeffb75c	-0.4994458
122	0x3ea9b1f3	0.33143577
123	0x3eee773f	0.46575353
124	0xbdffb523	-0.12485721
125	0xbe82b9a6	-0.25532264
126	0xbecd3657	-0.4008052
127	0xbdd90c65	-0.10598067
128	0x3c0754c4	0.008259956
129	0xbe9dea3e	-0.30842775
130	0xbe9a06a4	-0.3008319
131	0xbe93fd17	-0.2890403
132	0x3e323d30	0.17406154
133	0x3e93bc2b	0.28854498
134	0xbeacb5d2	-0.33732468
135	0x3e94a683	0.29033288
136	0xbe37748c	-0.17915553
137	0xbf1e3202	-0.61795056
138	0x3e2c77eb	0.1684262
139	0x3e7b7b98	0.24558866
140	0xbbddc0aa	-0.006767352
141	0xbedf3ea8	-0.4360249
142	0xbf18a6ea	-0.5962969
143	0x3e1c8430	0.152848
144	0xbe82c5e9	-0.25541618
145	0x3ed76fbc	0.42077434
146	0x3ed28d6f	0.4112353
147	0x3e1e98c5	0.15487964
148	0xbccf8531	-0.025332065
149	0xbed9853e	-0.42484468
150	0xbeed68d7	-0.4636905
151	0xbe7631e7	-0.24042474
152	0x3e503096	0.20331034
153	0x3e184e4f	0.14873622
154	0x3e0c36e4	0.13692814
155	0xbf030bfe	-0.51190174
156	0xbec1c3cf	-0.37844703
157	0xbe2abaf0	-0.16672873
158	0x3e4c377b	0.19943039
159	0xbe7ee350	-0.248914
160	0x3e5b28da	0.21402302
161	0xbe7ebcf5	-0.24876769
162	0xbe2bd65e	-0.16780993
163	0x3c014ca6	0.00789181
164	0x3eb2e292	0.34938484
165	0xbf276d9a	-0.65401614
166	0xbe83d896	-0.2575118
167	0xbf18a454	-0.59625745
168	0xbe41ebb4	-0.1893757
169	0x3eb4deed	0.3532633
170	0xbe25b1fe	-0.1618118
171	0x3e850c83	0.25986108
172	0xbdd6ded6	-0.10491721
173	0x3e19015f	0.1494193
174	0x3ea33a61	0.31880477
175	0xbe07f946	-0.13278684
176	0xbdaf7225	-0.08566693
177	0xbe278cd6	-0.16362318
178	0xbc414dfe	-0.01179838
179	0xbe2ea121	-0.17053653
180	0xbe34fce6	-0.17674598
181	0x3ee6af31	0.45055535
182	0x3da39ec3	0.07989266
183	0xbe84af94	-0.25915205
184	0x3dabe26b	0.08392795
185	0x3e9b881e	0.30377287
186	0xbe19e50c	-0.1502878
187	0x3ec666f5	0.38750425
188	0x3e8d51e3	0.27601537
189	0xbdd8a3db	-0.10578128
190	0x3e2d5605	0.16927345
191	0x3e11d8f2	0.14242914
192	0x3ee60b4e	0.449305
193	0x3e8bdd74	0.27317393
194	0x3e01017a	0.1259822
195	0x3e9129a8	0.28352094
196	0xbe357e7a	-0.17724028
197	0xbea79a9a	-0.3273514
198	0xbeb348ec	-0.35016572
199	0xbee92483	-0.4553567
200	0xbddf359e	-0.108988985
201	0xbea4a8a2	-0.32159907
202	0xbf51dae3	-0.8197462
203	0x3da923b2	0.082587615
204	0x3ee4e5cb	0.44706568
205	0x3c835f65	0.016036699
206	0x3e8f6ad0	0.2801118
207	0xbe422b8a	-0.18961921
208	0xbdbf3358	-0.09335965
209	0x3e46d7e2	0.1941829
210	0x3e9df8c4	0.30853856
211	0x3db68813	0.08912673
212	0x3da67578	0.08127874
213	0xbec7c31b	-0.3901604
214	0x3e32c7f0	0.17459083
215	0x3eae391e	0.34027952
216	0x3ed1fd8c	0.41013753
217	0xbe97cb38	-0.2964723
218	0x3e9a380c	0.30120885
219	0x3eb75279	0.3580511
220	0xbe21236c	-0.15736169
221	0x3e3f8adb	0.18705313
222	0xbc33fa12	-0.010984914
223	0xbe705023	-0.2346807
224	0xbedebc8d	-0.43503228

enc.weight_in f4 [15, 30]
0	0x3db8e955	0.090288796
1	0x3f00e576	0.5035013
2	0xbddf5d77	-0.10906499
3	0x3e559917	0.2085918
4	0x3db653b2	0.08902682
5	0x3ef9a05e	0.48755163
6	0xbb8d3457	-0.004309218
7	0xbebe5cd5	-0.371802
8	0x3c96799c	0.018368535
9	0xbd84f432	-0.06491889
10	0xbe62c959	-0.2214712
11	0x3e5923a1	0.21204998
12	0x3ea6b9a8	0.3256352
13	0xbe776578	-0.24159801
14	0x3e86c0b7	0.26318905
15	0x3e2cd34f	0.16877483
16	0x3e47904d	0.1948864
17	0x3cb6a72d	0.022296512
18	0xbd27c74c	-0.04096155
19	0xbe1dfc68	-0.15428317
20	0xbc8172b6	-0.015801769
21	0x3e72130d	0.2364008
22	0x3e027885	0.12741287
23	0xbe256c44	-0.16154581
24	0x3dcd5ca2	0.10027434
25	0x3e97d006	0.29650897
26	0x3e3e3f2f	0.1857879
27	0xbc56a9c8	-0.013102002
28	0x3eabb994	0.33540022
29	0xbcb76068	-0.022384837
30	0x3ec3315a	0.3812359
31	0x3eb41b3c	0.35177028
32	0xbec610cf	-0.386847
33	0x3e6c8ed1	0.23101355
34	0xbe8df6ec	-0.2772745
35	0x3e806599	0.25077513
36	0xbed75495	-0.42056718
37	0xbee32c7c	-0.44369876
38	0x3eac5be0	0.33663845
39	0xbe15c92d	-0.14627524
40	0xbac83dd8	-0.001527722
41	0xbab5bf50	-0.001386622
42	0x3ee132cd	0.4398407
43	0xbec81801	-0.39080814
44	0xbead3a2d	-0.33833447
45	0x3e35e543	0.17763238
46	0xbe187d07	-0.14891444
47	0xbecb3dd7	-0.39695618
48	0x3e26c152	0.16284683
49	0x3d9c8ce6	0.07644062
50	0xbe16251d	-0.14662595
51	0x3ee7817e	0.45215982
52	0xbe72b3bc	-0.23701376
53	0x3ec6b17b	0.38807282
54	0xbf251b04	-0.6449435
55	0xbeb99c05	-0.36251846
56	0xbe2abbdf	-0.1667323
57	0x3e9622f0	0.2932353
58	0xbecac541	-0.39603618
59	0xbed58d56	-0.41709393
60	0xbd1a6f96	-0.037704073
61	0x3e135397	0.14387356
62	0xbe24348f	-0.16035675
63	0x3e454cb5	0.19267543
64	0xbe3f66de	-0.18691584
65	0xbee98fa8	-0.45617414
66	0x3e826ead	0.25475064
67	0x3e1fa1b4	0.15589029
68	0xbe179e87	-0.14806567
69	0x3daee276	0.08539288
70	0x3d7a6920	0.06113541
71	0xbd34edd4	-0.044172123
72	0x3e732cc2	0.23747543
73	0xbed331a9	-0.41248825
74	0xbd98cf25	-0.07461385
75	0xbefde323	-0.49587354
76	0xbcda68a8	-0.026661232
77	0x3e93efcc	0.28893888
78	0x3eb7d094	0.3590132
79	0x3d4d639c	0.050143823
80	0xbdfb158a	-0.122599676
81	0x3d5d8f7c	0.054091915
82	0x3d22a4de	0.03970801
83	0xbec96ad7	-0.39339325
84	0x3e073afb	0.13206093
85	0x3e74d162	0.23907998
86	0xbea3176f	-0.31853816
87	0x3e9ad2f4	0.3023907
88	0x3e8f8f56	0.28039044
89	0xbe9c4280	-0.30519485
90	0xbea40d33	-0.3204132
91	0xbd8d3cb6	-0.06896345
92	0xbcd44bdf	-0.025915084
93	0x3ec12982	0.3772698
94	0x3ed3b438	0.41348433
95	0x3e296a5b	0.16544478
96	0x3e5edcff	0.21763991
97	0x3e2eaafe	0.17057416
98	0xbe348b14	-0.17631179
99	0x3e9259b8	0.28584075
100	0x3ea0733f	0.31337926
101	0xbd8055f2	-0.06266393
102	0x3f149406	0.58038366
103	0x3ea7afa9	0.32751206
104	0xbeaf2770	-0.34209776
105	0xbf0f4227	-0.55960315
106	0xbec7f972	-0.390575
107	0xbbf1e235	-0.0073817023
108	0xbe1c0edd	-0.15240045
109	0x3ccf3bc6	0.025297057
110	0xbdf78b32	-0.12087096
111	0x3f18950d	0.59602433
112	0xbe7035af	-0.23457979
113	0xbf3d57e4	-0.73962235
114	0x3c72d64f	0.014821603
115	0x3ece8490	0.40335512
116	0xbf51a4bf	-0.8189201
117	0xbe6575f2	-0.22408274
118	0x3da45010	0.08023083
119	0xbed8868b	-0.42290148
120	0xbe11a587	-0.142233
121	0x3f08124a	0.53152907
122	0xbe13cadf	-0.14432858
123	0x3ef39eb7	0.47582027
124	0x3e784de1	0.24248458
125	0xbde029ad	-0.10945449
126	0x3e56e907	0.2098733
127	0x3e374ea2	0.1790109
128	0x3f0226e8	0.50840616
129	0x3eacdf81	0.3376427
130	0x3eb1faa9	0.3476155
131	0xbde0ada5	-0.1097062
132	0x3f50cfda	0.81567156
133	0x3e0c49b7	0.13699995
134	0xbf0840f0	-0.53224087
135	0xbe9f40e9	-0.3110421
136	0xbe64527e	-0.22297093
137	0x3e8aa1cb	0.27076563
138	0x3e8ce8ad	0.27521268
139	0x3f1f324c	0.6218612
140	0x3e15322e	0.14569923
141	0xbf0965ff	-0.5367126
142	0xbe993942	-0.29926497
143	0xbeaa7974	-0.33295786
144	0x3e7e7a36	0.24851307
145	0xbd94f9e7	-0.072742276
146	0xbf1fa0db	-0.6235482
147	0xbe286f8a	-0.16448799
148	0x3e711284	0.2354222
149	0xbc8a122c	-0.016854368
150	0xbd91c6cb	-0.07117995
151	0xbb46cb61	-0.0030333626
152	0x3ea129b7	0.31477138
153	0xbe34e0d2	-0.17663887
154	0x3e9e032f	0.30861804
155	0x3d82b0ec	0.063814014
156	0xbef30aa9	-0.4746907
157	0x3d9d1a16	0.07670991
158	0x3ebc6a38	0.36799788
159	0xbf619412	-0.8811656
160	0x3db65664	0.089031965
161	0x3ef3c0a5	0.47607914
162	0x3e331099	0.174868
163	0x3eae3525	0.3402492
164	0xbead3d77	-0.33835956
165	0x3eb7ebe7	0.35922167
166	0xbe363767	-0.17794572
167	0x3e11b4fe	0.142292
168	0x3e1a4a11	0.15067317
169	0xbe1042ce	-0.14087984
170	0xbe2fc0b3	-0.17163353
171	0xbe3608c8	-0.17776787
172	0xbe4bd662	-0.19906
173	0x3e0a54ec	0.13508958
174	0xbf694252	-0.9111682
175	0xbe87d681	-0.2653084
176	0x3e23acb0	0.15983844
177	0x3d38c695	0.045111258
178	0xbe4d51c8	-0.20050728
179	0xbd8d1576	-0.06888859
180	0x3e152e32	0.14568403
181	0xbeb15c10	-0.3464055
182	0xbe27bfd5	-0.16381772
183	0x3e030bec	0.12797517
184	0x3e689e9d	0.22716756
185	0x3e487a69	0.19577946
186	0x3e0ba4c7	0.13637076
187	0x3ca70431	0.02038774
188	0x3e7416c4	0.2383681
189	0xbec2ae7a	-0.3802374
190	0x3e32a5fa	0.17446128
191	0xbd7fad03	-0.062420856
192	0x3e2b3e3e	0.16722962
193	0xbe70ed0f	-0.2352793
194	0xbe87feff	-0.26561734
195	0xbf0794fb	-0.529617
196	0x3de6c58e	0.11268149
197	0x3ee53226	0.44764823
198	0x3dd8d45f	0.105873816
199	0x3e4ce66f	0.20009778
200	0xbe8048d9	-0.25055578
201	0x3e15eba5	0.14640673
202	0xbeafeb61	-0.34359267
203	0xbf00ae1c	-0.5026567
204	0xbfc106cd	-1.50802
205	0x3e54a72e	0.20766899
206	0xbe584f2e	-0.21123955
207	0xbe9377ce	-0.2880234
208	0xbd9eaf76	-0.0774831
209	0xbee90d72	-0.4551807
210	0x3ed92cba	0.42416936
211	0x3edb6dfa	0.42857343
212	0x3e8e2d4f	0.27768943
213	0x3e655a35	0.22397693
214	0x3ec99bb0	0.39376593
215	0x3ed8a45f	0.42312905
216	0xbeb637ec	-0.3558954
217	0xbe8072cd	-0.25087586
218	0x3e577e8d	0.21044369
219	0x3e4477c6	0.19186315
220	0xbe18cfed	-0.14923067
221	0xbc5d07ff	-0.013490676
222	0x3e549f1f	0.20763825
223	0x3e47d85c	0.19516128
224	0xbd8f8f51	-0.07009757
225	0x3c6c2f26	0.014415538
226	0xbe206b15	-0.15665849
227	0xbe6e0559	-0.23244227
228	0xbd74932e	-0.059710674
229	0xbd5e37f1	-0.05425257
230	0xbe6f65fb	-0.23378746
231	0xbe5a1cf3	-0.21300106
232	0xbeae0240	-0.33986092
233	0x3e988efb	0.29796585
234	0xbdcf4baf	-0.101218574
235	0xbc04d86b	-0.008108239
236	0x3e3a6940	0.18204212
237	0xbf2fba39	-0.6864353
238	0x3e81ee3a	0.25377065
239	0xbe82b7ed	-0.2553095
240	0xbe959b9e	-0.2922029
241	0xbe049395	-0.12946923
242	0xbf201ca0	-0.6254368
243	0xbf497f10	-0.78709507
244	0xbf2c3c85	-0.67279845
245	0xbe341311	-0.17585398
246	0x3f02e798	0.51134634
247	0x3dde6035	0.10858194
248	0xbdfab626	-0.12241773
249	0x3e10bbe7	0.14134179
250	0x3e518652	0.20461395
251	0xbe6fb509	-0.23408903
252	0x3e5ae90c	0.21377963
253	0xbe2a4d34	-0.16631013
254	0x3dad8c53	0.0847403
255	0xbe86f97b	-0.26362213

enc.weight_out f4 [15, 30]
0	0xbe4174cd	-0.18892212
1	0xbf19aef2	-0.6003257
2	0x3d2e47d5	0.042548973
3	0xbecae791	-0.39629796
4	0xbe201081	-0.15631296
5	0xbf0277b3	-0.50963897
6	0x3f001932	0.50038445
7	0x3ed88f8a	0.42297012
8	0xbd804c5f	-0.06264567
9	0x3f522f62	0.8210355
10	0x3ee5bfe1	0.44872954
11	0xbe825395	-0.25454393
12	0x3ebd58bd	0.36981764
13	0xbdb52ee4	-0.08846834
14	0xbe0a5654	-0.13509494
15	0x3da8a98d	0.08235464
16	0xbec7a550	-0.3899331
17	0xbe5d035f	-0.21583317
18	0x3e62b200	0.22138214
19	0xbce81547	-0.028330458
20	0x3deadc64	0.114678174
21	0x3f6cb681	0.9246598
22	0x3f5118ed	0.8167866
23	0x3e108cae	0.14116165
24	0xbe9bc670	-0.30424833
25	0x3ebdd133	0.3707367
26	0x3f033973	0.51259536
27	0x3edbb16b	0.42908797
28	0xbd446a7d	-0.047953118
29	0x3eece085	0.46265045
30	0xbf26f179	-0.6521221
31	0x3ec8f095	0.3924605
32	0xbd173397	-0.036914434
33	0x3e0f1e5f	0.1397643
34	0xbe1b0baa	-0.15141168
35	0x3e956d76	0.29185075
36	0xbf4c91a5	-0.79909736
37	0xbf102e8a	-0.5632101
38	0xbd3314b8	-0.04372093
39	0xbf0a7b2d	-0.540942
40	0x3e300179	0.17188062
41	0xbeb1cb69	-0.34725502
42	0x3f8f89ab	1.1213888
43	0xbe3a6aa9	-0.1820475
44	0xbf342683	-0.70371264
45	0x3e03b168	0.12860644
46	0x3e819502	0.25308996
47	0xbd03b01f	-0.032150384
48	0xbe628b6c	-0.22123498
49	0xbea9a63f	-0.33134648
50	0xbe8cbe2d	-0.27488843
51	0x3eca651a	0.3953026
52	0xbe3d61ed	-0.18494387
53	0x3e1b6313	0.15174513
54	0xbf4e9b9b	-0.80706185
55	0xbe22b74c	-0.15890235
56	0x3eb0a4bc	0.34500682
57	0xbeae99c7	-0.34101698
58	0xbd9954e1	-0.074868925
59	0x3e56e91c	0.20987362
60	0xbeb78a77	-0.35847828
61	0x3ded39e2	0.11583306
62	0xbe8ec4a8	-0.27884412
63	0xbebd37a1	-0.36956504
64	0xbefad3dd	-0.48989764
65	0x3e460d56	0.19341025
66	0xbeb052ef	-0.34438273
67	0x3e0163cb	0.12635724
68	0x3e3f25d5	0.18666776
69	0xbf016150	-0.5053911
70	0x3de8ad4d	0.113611795
71	0x3e608111	0.21924235
72	0xbee4e35c	-0.4470471
73	0xbdd448b7	-0.10365432
74	0xbc8f67da	-0.017505575
75	0x3e5497eb	0.20761077
76	0xbd219139	-0.039445136
77	0x3e13f8dd	0.14450403
78	0xbe6cd641	-0.23128606
79	0xbf12cf87	-0.5734791
80	0x3e244257	0.16040932
81	0x3d50b9dd	0.050958503
82	0xbcf808c5	-0.03027762
83	0xbed18a3b	-0.40925774
84	0x3e23fa61	0.1601348
85	0xbd0caf01	-0.034346584
86	0xbe7ff09f	-0.24994133
87	0xbf07608f	-0.5288171
88	0xbdaa8585	-0.08326248
89	0xbf078ca3	-0.5294897
90	0x3c5a59c7	0.013327069
91	0xbca0f36e	-0.019647326
92	0xbdb9250d	-0.0904027
93	0xbe4e974f	-0.20174907
94	0xbe98a654	-0.29814398
95	0x3f0a4416	0.5401014
96	0x3ee82475	0.45340315
97	0x3e365e02	0.17809299
98	0x3e16e71b	0.14736597
99	0x3f69b02b	0.91284436
100	0xbf1b9aab	-0.6078288
101	0x3f0b93c8	0.5452237
102	0x3e7c14c4	0.24617296
103	0xbe680c70	-0.22660995
104	0x3d8e6e11	0.06954587
105	0xbea82ffe	-0.32849115
106	0xbeb1dbaf	-0.34737918
107	0xbf63f642	-0.89047635
108	0xbdd3f452	-0.10349335
109	0xbedddd2a	-0.43332797
110	0xbde0f1db	-0.1098363
111	0x3f65b7d4	0.89733624
112	0x3f7bfbed	0.98431283
113	0xbef89270	-0.48549223
114	0xbede26d0	-0.43388987
115	0xbc9aee40	-0.018912435
116	0xbf0669a1	-0.52504927
117	0xbf2aab53	-0.6666767
118	0xbe68a0b5	-0.22717555
119	0xbd712e10	-0.05888182
120	0xbd09c1e4	-0.033632174
121	0x3e95ba66	0.29243773
122	0x3e847b9f	0.25875565
123	0x3ec2c856	0.3804347
124	0x3c82fe7d	0.01599049
125	0x3e198251	0.14991118
126	0xbea01a33	-0.31269988
127	0xbc973eec	-0.01846262
128	0xbf16f6c4	-0.58970284
129	0x3f4ff973	0.81240004
130	0xbeb7cc01	-0.3589783
131	0xbeb59324	-0.35463822
132	0x3e8afe5a	0.2714718
133	0x3ec2bc86	0.38034457
134	0x3e0af80f	0.1357119
135	0x3e5bbe1c	0.2145924
136	0x3eb1a7ea	0.3469842
137	0x3e469b99	0.19395293
138	0xbd8693f1	-0.06571186
139	0xbdb851cc	-0.089999765
140	0x3e526aa6	0.20548496
141	0x3e57aa50	0.21061063
142	0xbeb381a7	-0.35059854
143	0xbeb32d2f	-0.3499541
144	0x3f15e140	0.5854683
145	0x3eb00cf4	0.34384882
146	0xbe742626	-0.23842677
147	0x3ed5a458	0.41726947
148	0xbdd76099	-0.105164714
149	0x3dd3ab74	0.103354365
150	0xbecb4870	-0.39703703
151	0xbf07e904	-0.5308993
152	0x3df3cf6c	0.11904797
153	0x3e8f41d4	0.2797991
154	0x3ed8bf70	0.42333555
155	0xbe0532c0	-0.13007641
156	0x3ebc60ee	0.367927
157	0xbdf6bd34	-0.120478064
158	0xbeb956ee	-0.36199135
159	0xbdb56ba5	-0.08858422
160	0xbd6373f0	-0.05553049
161	0xbf0d213d	-0.5512884
162	0x3f177eab	0.59177655
163	0x3ea60de3	0.3243247
164	0x3dc4e3f6	0.096137926
165	0xbf346572	-0.70467293
166	0xbfd2ed9a	-1.647876
167	0x3f0b2036	0.54346025
168	0x3efbed91	0.49204686
169	0x3e6f6f7b	0.2338237
170	0xbdd8b159	-0.105807014
171	0x3de85c69	0.11345751
172	0x3e88f823	0.26751813
173	0xbf9b76e9	-1.2145663
174	0xbf5296ee	-0.8226155
175	0x3e3c6fe1	0.18402053
176	0xbf635023	-0.88794154
177	0xbf45354d	-0.77034456
178	0x3ec688d4	0.38776267
179	0xbf903e67	-1.1269044
180	0x3edf1116	0.43567723
181	0x3db8e9f9	0.09029002
182	0xbe806e1b	-0.25084004
183	0xbe1e3143	-0.1544848
184	0x3e8cd886	0.27508944
185	0x3dbc3b22	0.09190966
186	0xbedc9317	-0.4308097
187	0xbe222fb7	-0.15838514
188	0xbcb8de8a	-0.022567052
189	0xbe8a3f7c	-0.2700156
190	0x3debfe1a	0.115230754
191	0x3e4fe98e	0.20303938
192	0x3d351193	0.044206213
193	0x3e2c7e47	0.16845046
194	0x3ef4b4b7	0.47794124
195	0x3ea04985	0.3130609
196	0x3ece7502	0.40323645
197	0xbec0f836	-0.3768937
198	0xbd38048f	-0.044926222
199	0xbcfb0618	-0.030642554
200	0xbe4cc7e9	-0.19998135
201	0x3de99486	0.11405282
202	0x3dadea01	0.08491898
203	0xbdbb24d7	-0.09137886
204	0x3ddb8356	0.1071841
205	0xbdca72ee	-0.09885202
206	0xbe815f25	-0.25267902
207	0x3d801c09	0.06255347
208	0x3e74ac43	0.23893838
209	0xbd3fe1a9	-0.046846066
210	0xbce23d78	-0.027617201
211	0xbe38ec10	-0.180588
212	0x3c3e0d4a	0.011599848
213	0x3d8dbcc7	0.06920772
214	0xbeb5caaf	-0.35506198
215	0xbe020d6c	-0.12700433
216	0xbecedbc5	-0.40402046
217	0xbdb83db1	-0.08996142
218	0x3e86e265	0.263446
219	0x3cb28045	0.02178968
220	0xbec6cc6d	-0.3882784
221	0x3e46661a	0.19374886
222	0xbea7c1b2	-0.32764965
223	0xbd9d0131	-0.07666243
224	0x3e1f5d99	0.15563048
225	0xbe9a0630	-0.30082846
226	0x3de8e087	0.1137095
227	0xbed96be1	-0.42465118
228	0x3c99ed20	0.018789828
229	0xbddaf7d4	-0.10691801
230	0x3e18ef06	0.1493493
231	0xbecfa0b3	-0.4055229
232	0xbda923d1	-0.082587846
233	0xbebb0e94	-0.3653456
234	0xbe0faf8e	-0.14031813
235	0x3d913b5e	0.070914015
236	0xbe64e6ff	-0.22353743
237	0xbe8e5e08	-0.27806115
238	0xbea685c8	-0.32523942
239	0xbeccea2d	-0.40022412
240	0xbdc08cd3	-0.0940186
241	0x3f0ec466	0.5576843
242	0xbe61a88a	-0.22036949
243	0xbe46b663	-0.19405513
244	0x3e726b99	0.23673858
245	0xbeefdfae	-0.46850342
246	0x3e8e8139	0.27832964
247	0xbd1da432	-0.038486667
248	0xbe9dc11b	-0.3081139
249	0xbefa01b1	-0.48829415
250	0x3f3655b6	0.71224535
251	0x3e7179db	0.2358164
252	0xbeda5692	-0.42644173
253	0xbee0c7de	-0.43902487
254	0x3f1db147	0.6159863
255	0xbf15139f	-0.58233064

enc.weight f4 [15, 30]
0	0x3eecbdac	0.46238458
1	0xbd2e8117	-0.04260358
2	0xbe8a2c14	-0.26986754
3	0x3e003fcd	0.12524338
4	0x3e91e6aa	0.28496295
5	0xbd6fd4ec	-0.058552667
6	0xbbad7268	-0.0052931793
7	0x3e26289c	0.16226429
8	0xbe82e3e3	-0.2556449
9	0x3dfaf009	0.12252814
10	0xbe3a75bf	-0.18208979
11	0x3e53a5e2	0.20668748
12	0x3e2ffda0	0.17186594
13	0xbe33addc	-0.17546791
14	0xbd932156	-0.07184093
15	0xbf3b7a9d	-0.7323397
16	0xbc20caff	-0.009814023
17	0x3dd04725	0.1016982
18	0xbeadd754	-0.33953345
19	0x3e0ce165	0.13757856
20	0x3ebdc927	0.3706753
21	0x3e8f9795	0.28045335
22	0x3e99e0d0	0.3005433
23	0x3c5cb117	0.013469956
24	0x3ca0e000	0.019638062
25	0x3c8db620	0.017298758
26	0xbe14fd24	-0.1454969
27	0xbdd0327f	-0.10165881
28	0xbe029e83	-0.1275578
29	0xbcb0d40c	-0.021585487
30	0xbcc4c25d	-0.02401846
31	0x3e235cca	0.15953365
32	0x3edead32	0.43491513
33	0x3e9dc29a	0.30812532
34	0x3f3b969e	0.732767
35	0xbca728d1	-0.020405205
36	0x3f39c6b2	0.7256881
37	0x3e4e119a	0.20123902
38	0xbee8b092	-0.45447212
39	0xbea52451	-0.3225427
40	0xbdb5f2ba	-0.08884187
41	0xbea79a46	-0.3273489
42	0x3ec57ac8	0.38570237
43	0x3ef40962	0.4766341
44	0xbe590b41	-0.211957
45	0xbe694d4a	-0.2278339
46	0xbf48699e	-0.7828616
47	0xbe87e717	-0.26543495
48	0xbf3e7380	-0.7439499
49	0x3e46d25c	0.19416183
50	0xbd8788ab	-0.06617864
51	0x3e6e7ef0	0.2329061
52	0x3e150ee0	0.14556456
53	0x3f23b3b6	0.6394609
54	0x3e4e10f3	0.20123653
55	0xbe64d838	-0.22348106
56	0xbee9d578	-0.45670676
57	0xbe21a612	-0.15786007
58	0xbe5f69d3	-0.21817712
59	0xbe92862a	-0.28617984
60	0x3e6fcd4b	0.23418157
61	0x3f43f59a	0.76546633
62	0x3f0188d4	0.5059941
63	0x3c28934b	0.010289024
64	0x3d4249a3	0.047433507
65	0x3eb59d48	0.3547156
66	0xbe1f40cf	-0.15552066
67	0x3ebeaaec	0.37239778
68	0xbb086c88	-0.0020816643
69	0x3edb7132	0.428598
70	0x3d160510	0.03662592
71	0xbe7b30d4	-0.24530345
72	0x3eac8b4e	0.3370003
73	0x3ec23763	0.37932882
74	0x3de76939	0.112993665
75	0x3d7de961	0.061990146
76	0x3f40860a	0.7520453
77	0xbdda6111	-0.10663045
78	0x3d13031a	0.03589163
79	0xbe0ef144	-0.13959223
80	0xbeb6cfb7	-0.3570535
81	0x3ebb4d35	0.36582342
82	0x3c22bb9b	0.009932424
83	0x3f0345f4	0.51278615
84	0xbe9affc9	-0.30273274
85	0xbdb8be39	-0.09020657
86	0x3df1858f	0.117930524
87	0x3e78b933	0.24289398
88	0xbe8b5115	-0.27210298
89	0xbe9db317	-0.30800697
90	0xbe290e73	-0.16509418
91	0x3d5dbc0f	0.054134425
92	0x3d8a7f13	0.06762519
93	0x3e68ba9b	0.22727434
94	0xbeb019e9	-0.34394768
95	0xbdd41b90	-0.1035682
96	0x3cd55f15	0.026046315
97	0xbebaeea5	-0.36510196
98	0x3ea94400	0.33059692
99	0xbd88dd0f	-0.066827886
100	0xbe88c259	-0.26710775
101	0xbe3fd703	-0.18734364
102	0xbdf70bd8	-0.12062806
103	0xbee54128	-0.44776273
104	0xbebaaeba	-0.3646143
105	0xbe6a5313	-0.22883253
106	0xbd81c532	-0.0633644
107	0xbd901479	-0.07035155
108	0xbe09ae84	-0.13445479
109	0x3d239e99	0.039946172
110	0x3d3aadef	0.045576032
111	0xbd85e621	-0.06538034
112	0x3e8b50da	0.27210122
113	0x3bcc0f99	0.0062274453
114	0x3c815800	0.015789032
115	0x3e261755	0.16219838
116	0xbe8cb49b	-0.2748154
117	0x3e7c3281	0.2462864
118	0xbec9092c	-0.3926481
119	0x3e1cda21	0.15317585
120	0x3da785f8	0.081798494
121	0xbea05c19	-0.31320265
122	0xbedb9a43	-0.4289113
123	0xba016690	-0.00049362425
124	0x3d143ce4	0.036190882
125	0xbd074d91	-0.033032957
126	0xbf076aee	-0.52897537
127	0xbe86b60a	-0.2631076
128	0x3d8df2d4	0.069310814
129	0xbf0a7836	-0.5408968
130	0xbee3728d	-0.44423333
131	0xbdbfbbac	-0.093619674
132	0xbe8261fb	-0.25465378
133	0x3dbb197d	0.09135721
134	0xbd2e8c6f	-0.042614397
135	0xbe7cd25d	-0.24689622
136	0xbebbaff3	-0.36657676
137	0xbe1360f8	-0.1439246
138	0xbe89d9a0	-0.26923847
139	0xbee41a68	-0.44551396
140	0x3ed16650	0.4089837
141	0x3c47275f	0.012155383
142	0xbd5cb8ad	-0.053887058
143	0x3e2cc936	0.16873631
144	0xbe11ec61	-0.14250328
145	0x3bbe11a5	0.0058004432
146	0x3df40732	0.11915435
147	0xbea361d8	-0.31910586
148	0xbf010b02	-0.5040742
149	0xbe28b23e	-0.16474244
150	0xbe974331	-0.2954345
151	0xbefccec8	-0.49376512
152	0x3eac329a	0.33632356
153	0x3edef903	0.43549356
154	0x3eb9d066	0.36291808
155	0xbf028e3c	-0.5099828
156	0x3f5f18a0	0.8714695
157	0xbe1f53c0	-0.15559292
158	0x3d2f5345	0.04280402
159	0x3d602783	0.05472518
160	0xbd9a039d	-0.075202204
161	0x3f4ed436	0.8079256
162	0xbeea2874	-0.45733988
163	0x3e62ef62	0.2216163
164	0xbe8cb533	-0.27481994
165	0xbe2c9041	-0.16851903
166	0x3e7d8d32	0.24760893
167	0xbb87a68e	-0.004139728
168	0xbe40efd1	-0.18841483
169	0xbefb42f3	-0.49074516
170	0x3f2e2f8a	0.6804129
171	0xbf59b4c1	-0.85041434
172	0xbcca55b6	-0.024699073
173	0x3ed2f685	0.41203704
174	0xbc5c6da6	-0.013453877
175	0xbe20b9e7	-0.15695916
176	0xbe54836e	-0.20753261
177	0x3ec7c668	0.3901856
178	0xbe8b8ad0	-0.27254343
179	0xbe1a494b	-0.15067022
180	0xbe351a74	-0.17685872
181	0x3eab21ec	0.33424318
182	0x3ce7464b	0.02823176
183	0x3e96ccd4	0.29453146
184	0xbd9d4655	-0.076794304
185	0xbe7ce290	-0.24695802
186	0x3eed7474	0.4637791
187	0xbea42304	-0.32057965
188	0x3ec807a8	0.3906834
189	0xbd076997	-0.033059683
190	0xbe733f8f	-0.23754714
191	0x3e8c66a6	0.27422065
192	0xbe793fc2	-0.24340728
193	0x3e1f9094	0.15582496
194	0x3ce25a53	0.02763096
195	0x3e1233be	0.1427755
196	0x3e90064a	0.28129798
197	0xbcbc51ef	-0.022988288
198	0x3f265a75	0.64981776
199	0x3e8ef303	0.27919778
200	0x3f07187f	0.52771753
201	0x3eb6f47e	0.35733408
202	0xbe477746	-0.19479093
203	0xbeddb67f	-0.43303296
204	0xbe28b1d3	-0.16474085
205	0x3d3d89d0	0.046274006
206	0x3edb887c	0.42877567
207	0xbe433ecb	-0.19066922
208	0xbe7b693d	-0.24551864
209	0x3cbe463f	0.023226855
210	0xbe67fc4c	-0.22654837
211	0xbee6fe29	-0.45115784
212	0x3d9c1852	0.07621826
213	0xbd1997bc	-0.03749822
214	0xbd54eb56	-0.051982246
215	0x3e95a1a6	0.2922489
216	0x3d265e26	0.04061713
217	0xbed75486	-0.42056674
218	0xbf9c2189	-1.2197734
219	0x3ec0c8fc	0.3765334
220	0x3ecd9c76	0.40158433
221	0xbe34758a	-0.17622963
222	0x3cbd0fc0	0.0230788
223	0x3de47fec	0.11157212
224	0xbe9698db	-0.29413494
225	0x3e933775	0.28753248
226	0x3d2b82c0	0.04187274
227	0x3e421a3e	0.18955323
228	0xbe1c54a1	-0.15266658
229	0xbe9dc001	-0.3081055
230	0xbea8a6d3	-0.32939777
231	0x3dc83f7b	0.09777733
232	0x3e01d15f	0.12677525
233	0x3e5411c1	0.20709898
234	0x3e6e009c	0.2324242
235	0x3e39fa10	0.18161798
236	0x3cefa5f4	0.029253937
237	0x3ecc7913	0.39936122
238	0xbe8cdce8	-0.27512288
239	0x3ea7c931	0.32770684
240	0xbe16c665	-0.14724119
241	0xbe9f8c30	-0.31161642
242	0xbd96e1eb	-0.07367309
243	0xbdade89f	-0.084916346
244	0x3db17450	0.08664763
245	0x3dc7ecb7	0.09761947
246	0xbdbab883	-0.09117224
247	0x3ddf6e7b	0.10909744
248	0x3de1e8b0	0.1103071
249	0xbe4df2c9	-0.20112146
250	0xbddf5439	-0.10904736
251	0xbea3689a	-0.31915742
252	0xbebfaa16	-0.37434453
253	0xbe84d1a9	-0.25941208
254	0x3c874199	0.016510772
255	0xbedf5600	-0.436203

enc.base_model.weight_in f4 [15, 16]
0	0x3ee2a40a	0.44265777
1	0x3ef9e208	0.4880526
2	0xbea13594	-0.3148619
3	0x3e824f24	0.25451005
4	0x3d2eed69	0.04270688
5	0xbe2f4bd1	-0.17118765
6	0x3d919530	0.071085334
7	0x3e8e13d6	0.2774951
8	0x3d12ff33	0.03588791
9	0x3e27fb4c	0.16404456
10	0xbf802a98	-1.0012999
11	0x3f82521b	1.0181307
12	0xbfa89ad2	-1.3172247
13	0xbebfbc40	-0.3744831
14	0xbecae4f2	-0.39627796
15	0xbc030bab	-0.007998387
16	0xbe045789	-0.12924017
17	0xbe601c06	-0.2188569
18	0x3f102d65	0.56319267
19	0x3ca7bedb	0.02047675
20	0xbf4728cc	-0.77796626
21	0x3ec84fe8	0.39123464
22	0xbefaee51	-0.49009946
23	0xbe806c06	-0.25082415
24	0x3f4ddbf5	0.8041375
25	0xbe803dd5	-0.25047174
26	0xbeb97fa8	-0.36230206
27	0x3f8f1194	1.117724
28	0x3f47ed61	0.78096586
29	0x3f157ed8	0.58396673
30	0x3efc4690	0.49272585
31	0x3de0ee79	0.10982985
32	0xbe6e4bc8	-0.23271096
33	0x3d820d49	0.0635019
34	0x3dbfcfbc	0.09365794
35	0x3e6b49c8	0.22977364
36	0x3e34e6a8	0.17666113
37	0xbea6fdb1	-0.32615426
38	0x3d9251df	0.07144522
39	0x3eaf2778	0.342098
40	0xbea7be91	-0.32762578
41	0x3d246bf1	0.040142003
42	0x3f206e5d	0.626684
43	0x3e898cbd	0.26865187
44	0x3f528b87	0.8224415
45	0x3e20ddc3	0.15709595
46	0x3dac3142	0.08407833
47	0x3d368a80	0.044565678
48	0xbeb58e65	-0.354602
49	0x3e7ba4ac	0.24574536
50	0xbeb31c4d	-0.3498253
51	0x3f84ae7e	1.0365751
52	0x3e994346	0.29934138
53	0xbea4f304	-0.32216656
54	0xbf265120	-0.64967537
55	0x3efb5705	0.49089828
56	0xbd600d89	-0.054700408
57	0xbe9c18d9	-0.30487707
58	0x3f1cbc16	0.61224496
59	0x3f2fd5ba	0.68685496
60	0xbf1bbeed	-0.60838205
61	0x3e802839	0.25030687
62	0x3e98d4fc	0.29849994
63	0x3dbd1f09	0.09234435
64	0x3edcfe20	0.43162632
65	0x3def2915	0.11677758
66	0x3e712a8f	0.23551391
67	0x3f924886	1.1428382
68	0x3e356505	0.17714317
69	0xbc8b3a08	-0.016995445
70	0xbd4e9620	-0.05043614
71	0x3e9d0fb9	0.30676058
72	0x3ec603b7	0.3867471
73	0xbe863883	-0.2621499
74	0xbf38697b	-0.7203595
75	0x3e9d4b92	0.30721718
76	0xbef49fb4	-0.47778094
77	0xbe8cc187	-0.274914
78	0xbf0f1577	-0.5589213
79	0x3ec13dd1	0.37742475
80	0xbc34315f	-0.010998099
81	0x3e80282e	0.25030655
82	0xbf287e0c	-0.6581733
83	0x3f2ece76	0.68283784
84	0xbe8f8e2f	-0.28038165
85	0xbd113539	-0.035451148
86	0x3e6d8bbb	0.23197834
87	0x3f020386	0.50786626
88	0x3f0ec8ec	0.5577533
89	0xbe6df501	-0.23237993
90	0xbea6770d	-0.32512704
91	0x3fa05632	1.2526305
92	0x3e8cce1d	0.27501002
93	0xbe810d8f	-0.25205657
94	0xbefa7382	-0.4891625
95	0xbc06671d	-0.008203295
96	0x3f17e7a0	0.59337807
97	0x3d7d0fcd	0.061782647
98	0x3db849ae	0.08998428
99	0xbea30b51	-0.3184457
100	0xbe3faaed	-0.18717547
101	0x3f56d705	0.83921844
102	0x3f13512d	0.5754574
103	0xbee0deeb	-0.43920073
104	0x3db2227f	0.08697986
105	0x3c091c9a	0.008368636
106	0x3f0b6cb7	0.5446276
107	0xbf42368c	-0.7586448
108	0xbe3e880d	-0.18606587
109	0xbe6e76a0	-0.2328744
110	0xbd1f2a7a	-0.03885887
111	0xbeec04dd	-0.4609746
112	0xbf1199b4	-0.5687516
113	0xbef8cc5b	-0.4859341
114	0x3d3993ca	0.04530696
115	0xbe1359b5	-0.1438969
116	0x3f3187ce	0.69347847
117	0x3f4fb7f6	0.8114008
118	0x3ea9db4a	0.33175117
119	0xbbc90a30	-0.0061352476
120	0xbf617c21	-0.8808003
121	0xbdeb7ef3	-0.11498823
122	0x3efb8061	0.49121383
123	0xbef69d65	-0.48166957
124	0x3d4207be	0.047370665
125	0x3f198d27	0.59981006
126	0x3de6e24b	0.11273631
127	0x3e16ac01	0.14714052
128	0x3e24fb61	0.16111518
129	0xbed4b974	-0.4154774
130	0x3e505f9d	0.20348974
131	0x3ee8263b	0.45341668
132	0x3de797fa	0.11308284
133	0x3ed05f6d	0.40697804
134	0x3f177da7	0.59176105
135	0x3ee7e9b5	0.45295492
136	0x3e8eea85	0.279133
137	0x3ecc9bbc	0.39962566
138	0x3ea51fa4	0.32250702
139	0x3f79903d	0.97485715
140	0x3e0c83fb	0.13722222
141	0x3ec4ba51	0.38423398
142	0x3d76497f	0.060128685
143	0x3eb40286	0.35158175
144	0xbb9fbb58	-0.004874628
145	0xbd2de011	-0.042450015
146	0xbf056851	-0.521123
147	0x3e709281	0.23493387
148	0x3ee6927a	0.45033628
149	0x3ea0c82c	0.3140272
150	0x3ea47681	0.3212166
151	0xbee3e85a	-0.44513208
152	0xbf4f0f13	-0.80882376
153	0x3ea13ad5	0.31490198
154	0x3f2ed450	0.68292713
155	0xbc3d7596	-0.011563679
156	0x3f6c857e	0.9239119
157	0x3f55bc89	0.83490807
158	0xbdbd1ff2	-0.09234609
159	0xbe21d530	-0.15803981
160	0x3e404acb	0.18778531
161	0xbee87efc	-0.4540938
162	0xbdc5712a	-0.09640725
163	0x3f08db1b	0.5345933
164	0xbe4f2fe1	-0.20233108
165	0x3eae7da9	0.34080246
166	0xbc648a37	-0.013948969
167	0x3ee23295	0.44179216
168	0xbfa316e8	-1.2741365
169	0x3ee78a62	0.45222765
170	0xbf01bf2b	-0.50682324
171	0xbe4c5ca9	-0.19957222
172	0x3c9f9641	0.019480826
173	0x3f2ebfbd	0.6826132
174	0xbee10ba1	-0.43954185
175	0x3f11eb5c	0.56999755
176	0xbeff7540	-0.49894142
177	0xbaa583c8	-0.0012627775
178	0xbd003ce0	-0.031308055
179	0xbf0d7966	-0.55263364
180	0xbe572182	-0.21008876
181	0xbebe3bc3	-0.3715497
182	0xbeb0121f	-0.34388825
183	0xbde5f9f9	-0.11229319
184	0xbf8b8cca	-1.090234
185	0x3ee547f6	0.44781464
186	0x3d886fd5	0.06661955
187	0xbff58dd1	-1.9183904
188	0xbea32fce	-0.3187241
189	0xbec6737d	-0.38759986
190	0xbeb3339c	-0.35000312
191	0x3e1fd5eb	0.15608947
192	0x3f13be6e	0.5771245
193	0xbd830cae	-0.06398903
194	0x3eebb077	0.4603307
195	0xbdfe7634	-0.12424889
196	0xbe881cfe	-0.2658462
197	0x3f7421d8	0.9536414
198	0x3e8c8143	0.2744237
199	0x3e5107cb	0.20413129
200	0x3e4b6545	0.1986285
201	0xbd448456	-0.047977768
202	0x3cbcadce	0.023032095
203	0xbf99b195	-1.2007319
204	0xbfb09cd6	-1.3797863
205	0xbf187800	-0.59558105
206	0xbe00a130	-0.12561488
207	0x3eccc656	0.39995068
208	0xbeb4ca37	-0.35310528
209	0x3eb5fb97	0.3554351
210	0x3ee951fb	0.4557036
211	0x3d954ce9	0.0729006
212	0x3f69db61	0.9135037
213	0x3f07a69d	0.52988607
214	0xbefedeed	-0.49779454
215	0x3e626d87	0.22112094
216	0x3e8a9fb5	0.27074972
217	0xbdb0aa3b	-0.08626219
218	0x3e01bf89	0.12670721
219	0xbeb5004b	-0.35351786
220	0x3c8a6dba	0.016898025
221	0x3c75798f	0.014982595
222	0xbe1f19f7	-0.15537249
223	0x3e80c4c4	0.2515012
224	0x3ed854e8	0.42252278
225	0xbeabd19a	-0.3355835
226	0x3d9aef83	0.075652145
227	0xbdaa3a54	-0.083119065
228	0xbed742b3	-0.42043075
229	0xbe5621ed	-0.20911379
230	0x3e38a367	0.18031083
231	0x3f13b294	0.57694364
232	0x3f3bc0bb	0.7334096
233	0x3ee6183b	0.4494036
234	0xbd7baad5	-0.061442215
235	0xbf5d1db0	-0.86373425
236	0xbe2eec6a	-0.17082372
237	0xbefb873a	-0.49126607
238	0x3cce6c2e	0.025198068
239	0x3dbd0e28	0.09231216

enc.base_model.weight_out f4 [15, 16]
0	0xbd64d33d	-0.055865515
1	0x3ed054c6	0.40689677
2	0x3e2310ab	0.15924327
3	0x3f6016d0	0.8753481
4	0x3dd6cb89	0.1048804
5	0xbe8403f9	-0.2578428
6	0xbef221e5	-0.47291484
7	0x3d8f18a1	0.069871195
8	0xbf55e382	-0.83550274
9	0xbe4a8974	-0.19778997
10	0x3ea1532a	0.31508762
11	0xbfa1ba2a	-1.2634938
12	0x3f07fecc	0.53123164
13	0x3e95e035	0.2927262
14	0x3e46d5ec	0.19417542
15	0x3dd3efba	0.103484586
16	0xbeed4fd5	-0.4634997
17	0xbeeb4a6b	-0.45955214
18	0x3e8709f7	0.2637479
19	0xbebfe3df	-0.3747854
20	0x3de0053a	0.10938497
21	0x3df73bbf	0.120719425
22	0xbcba7548	-0.022761002
23	0x3f0603b1	0.5234938
24	0xbdfd2fca	-0.12362631
25	0xbe9d8422	-0.30764872
26	0xbdfd64ed	-0.12372766
27	0xbf6685c7	-0.9004788
28	0x3e109c5b	0.14122145
29	0x3ec16345	0.3777105
30	0x3eae492e	0.34040207
31	0x3ebe074e	0.37114948
32	0xbf07c375	-0.5303262
33	0xbf45810e	-0.77150047
34	0xbee9306f	-0.45544764
35	0x3dc2900d	0.09500132
36	0x3e837110	0.25672197
37	0x3be8d8ab	0.007105907
38	0x3f3b2c45	0.73114425
39	0x3f0a9c2c	0.5414455
40	0x3f3f7910	0.747941
41	0x3e51c772	0.20486239
42	0xbe8098b3	-0.251165
43	0x3e6263f4	0.22108442
44	0x3d99c22d	0.07507739
45	0x3f72ea80	0.9488907
46	0xbdb79737	-0.08964389
47	0x3f033aa1	0.51261336
48	0xbefd1163	-0.49427328
49	0x3e2eb2b4	0.17060357
50	0x3e945604	0.28971875
51	0xbee1e9e0	-0.44123745
52	0xbefe8940	-0.49714088
53	0x3e881a97	0.26582786
54	0xbe147522	-0.14497808
55	0x3e83c13c	0.25733364
56	0x3efa9d1c	0.4894799
57	0x3ec1ca16	0.37849492
58	0xbe23f623	-0.16011862
59	0xbf2c19f6	-0.67227113
60	0xbf945d08	-1.1590891
61	0xbe4fcfda	-0.20294133
62	0xbe090dd8	-0.13384187
63	0xbe19742f	-0.14985727
64	0x3f226686	0.6343769
65	0x3ea1b859	0.3158596
66	0x3efd55f8	0.4947965
67	0xbea72f37	-0.3265321
68	0x3f09a325	0.53764564
69	0xbe8967d3	-0.26837024
70	0x3ecd8fc7	0.40148756
71	0xbebc22be	-0.36745256
72	0xbe32e25f	-0.17469166
73	0x3ec28980	0.3799553
74	0x3e8d02f5	0.2754132
75	0xbf2ea313	-0.6821758
76	0x3ee6a2d8	0.45046115
77	0xbe838f38	-0.25695205
78	0x3cdf0d17	0.027227921
79	0x3ed6d19d	0.41956797
80	0xbf26df42	-0.65184414
81	0x3ef6db10	0.48214006
82	0x3da9e544	0.08295682
83	0x3f7ff00d	0.99975663
84	0x3f2ba4b0	0.6704817
85	0x3efd2e03	0.49449167
86	0x3ea58214	0.32325804
87	0x3e647340	0.2230959
88	0xbf0f5cfa	-0.56001246
89	0xbdaa6c47	-0.083214335
90	0xbd36beb5	-0.044615466
91	0x3cdfaa00	0.027302742
92	0xbf1b1265	-0.6057494
93	0xbebc86b3	-0.36821517
94	0x3f0d404e	0.55176246
95	0xbf858c91	-1.0433522
96	0xbf608091	-0.87696177
97	0xbf1cc8c1	-0.61243826
98	0x3e8f52d6	0.27992886
99	0xbefca2d0	-0.49342966
100	0xbf188b00	-0.595871
101	0x3e6b86ef	0.23000692
102	0x3eda0494	0.42581618
103	0x3e7ecd72	0.24883059
104	0x3e800810	0.2500615
105	0x3e740c35	0.23832782
106	0xbe61a381	-0.22035028
107	0x3f6911f7	0.9104304
108	0x3eee6fb3	0.46569595
109	0xbe0130cc	-0.12616271
110	0x3eefd4f9	0.46842173
111	0x3cda3e68	0.026641086
112	0xbf3d9aa4	-0.7406409
113	0x3ee05a53	0.43818912
114	0xbed0c1b7	-0.40772793
115	0x3e5492a2	0.20759061
116	0x3f695257	0.91141266
117	0xbc60c23e	-0.013718186
118	0x3e768802	0.2407532
119	0x3f07a954	0.5299275
120	0x3e156767	0.14590226
121	0x3d21ea14	0.039529875
122	0x3de0b848	0.10972649
123	0x3f3365c8	0.7007718
124	0xbf8c2cfc	-1.0951228
125	0x3f0cacbe	0.54951084
126	0x3eb42441	0.3518391
127	0x3ebcde8c	0.3688854
128	0x3ea69ef2	0.3254314
129	0x3ec9e8d2	0.3943544
130	0xbe9cc525	-0.3061916
131	0xbe8c0e66	-0.27354735
132	0x3f29cd0a	0.6632849
133	0xbdc2b316	-0.09506814
134	0x3e086bb1	0.13322331
135	0xbed6d751	-0.41961148
136	0xbf6e154c	-0.93001246
137	0x3eb1e0b8	0.3474176
138	0xbef97fff	-0.48730466
139	0x3e599db6	0.21251568
140	0x3f21fb90	0.6327448
141	0xbedd4d17	-0.43222877
142	0x3e6c7780	0.2309246
143	0xbfcca20f	-1.5986956
144	0x3e821e65	0.25413814
145	0x3eef8e8c	0.46788442
146	0x3f04c282	0.51859295
147	0xbef20867	-0.47272035
148	0xbe94a0a6	-0.29028815
149	0xbe68271d	-0.2267117
150	0x3ec1bb42	0.3783818
151	0x3f037f28	0.513659
152	0x3c9a497e	0.018833872
153	0xbe39e08a	-0.18152061
154	0x3da873cb	0.08225211
155	0x3f5473cd	0.829892
156	0xbf97785c	-1.1833606
157	0xbee6d197	-0.4508178
158	0x3b7b234c	0.00383206
159	0xbf24383c	-0.64148307
160	0x3ee0929e	0.4386186
161	0xbf84a9a1	-1.0364267
162	0x3dc308a9	0.09523136
163	0xbee4c2cf	-0.44679877
164	0xbeb6cfb2	-0.35705334
165	0x3f73db81	0.9525681
166	0xbe969e40	-0.2941761
167	0x3ddd8d93	0.10818019
168	0xbefdb018	-0.4954841
169	0xbf3718ed	-0.7152241
170	0x3edd6574	0.43241465
171	0x3f98e27d	1.1944119
172	0x3f833f99	1.0253783
173	0xbf14c2c3	-0.5810968
174	0xbe1eed69	-0.15520252
175	0x3d07096a	0.032967962
176	0xbeb69651	-0.35661557
177	0x3c2240e0	0.009903163
178	0xbe0d3726	-0.13790569
179	0x3f2ac91e	0.6671313
180	0x3f3c8c46	0.7365154
181	0xbe786550	-0.24257398
182	0xbee277b4	-0.4423195
183	0x3f1f06cf	0.62119764
184	0x3f5564e3	0.83357066
185	0x3eb64e80	0.35606766
186	0x3dfcf963	0.12352254
187	0x3faf491f	1.369419
188	0xbf8938da	-1.0720475
189	0x3e9d3608	0.30705285
190	0x3ebefad7	0.3730075
191	0x3eb18400	0.3467102
192	0x3de62b69	0.112387486
193	0xbe916b09	-0.28401974
194	0x3c9de2d0	0.019273192
195	0xbf22f7ef	-0.63659567
196	0x3ea50cd7	0.3223636
197	0xbec5ecd2	-0.38657242
198	0x3e889f5f	0.2668409
199	0x3d5b20d8	0.05349812
200	0xbe96feca	-0.29491264
201	0xbd4c8bcd	-0.049938012
202	0xbe84133f	-0.25795934
203	0xbd40b1b7	-0.047044482
204	0x3e1caa23	0.15299277
205	0xbe7f321c	-0.24921459
206	0x3f3acffe	0.7297362
207	0xbcab886b	-0.020939073
208	0xbe9bc72e	-0.304254
209	0xbe711be1	-0.23545791
210	0x3e69ff7f	0.2285137
211	0xbe491a24	-0.19638878
212	0xbe8026c8	-0.25029588
213	0x3eb3dcaa	0.3512929
214	0xbedb2437	-0.42801067
215	0xbe82e4b8	-0.25565124
216	0xbf09b827	-0.5379662
217	0x3e3ff241	0.18744756
218	0x3e637198	0.22211301
219	0xbfd112d9	-1.6333877
220	0xbfbb7e5d	-1.4647938
221	0xbc526c4e	-0.012843205
222	0xbfa447d7	-1.2834424
223	0xbeb5ffdc	-0.35546768
224	0x3f051274	0.5198128
225	0x3aeb9ecd	0.0017976403
226	0x3d4c1325	0.049822945
227	0x3e4dc0e8	0.20093119
228	0xbe8c652a	-0.27420932
229	0x3f090280	0.5351944
230	0x3d379c1b	0.04482661
231	0xbed50099	-0.41602018
232	0x3c909023	0.017646855
233	0xbf13ce90	-0.57737064
234	0x3f0e3a2b	0.5555751
235	0xbf04687a	-0.5172192
236	0x3e3f130e	0.18659613
237	0xbddca478	-0.107735574
238	0xbe4e586a	-0.20150915
239	0x3e6a3358	0.22871149

enc.base_model.weight f4 [15, 30]
0	0x3e527cca	0.20555416
1	0xbe9ff76f	-0.31243464
2	0xbe8dfe83	-0.2773324
3	0xbdef5a1c	-0.11687109
4	0x3eae492d	0.34040204
5	0x3ebcb8ac	0.36859643
6	0x3daad97b	0.08342262
7	0xbed31b9a	-0.41231996
8	0xbd2adff7	-0.041717496
9	0xbeaed25a	-0.3414486
10	0xbde14b54	-0.11000696
11	0xbecc3d19	-0.39890364
12	0xbd921d38	-0.07134479
13	0xbcb8676e	-0.022510257
14	0x3ea646fe	0.32476038
15	0xbec81911	-0.39081624
16	0x3ea250c6	0.3170225
17	0x3e5a596e	0.21323177
18	0xbe0e6ec5	-0.13909443
19	0xbdcc03f7	-0.09961694
20	0x3e08bd70	0.13353515
21	0x3e409718	0.18807638
22	0x3eda3f39	0.4262636
23	0x3de773dd	0.11301396
24	0x3eae126c	0.3399843
25	0x3e0cfb4a	0.13767734
26	0x3e398cff	0.18120192
27	0x3e74a2ad	0.23890181
28	0xbe89e6cf	-0.26933905
29	0xbec13e2a	-0.3774274
30	0x3e3c275b	0.18374388
31	0xbe64d9be	-0.22348687
32	0xbe00f6b5	-0.12594111
33	0x3f2f33d9	0.6843849
34	0x3f342921	0.7037526
35	0x3e3d3230	0.18476176
36	0x3eb50f44	0.3536321
37	0x3e655247	0.22394668
38	0x3c6c7f3a	0.01443463
39	0xbe182725	-0.14858682
40	0x3e85d518	0.2613914
41	0xbf07df23	-0.53074855
42	0x3dd75978	0.10515112
43	0xbe580957	-0.21097313
44	0xbc47d53f	-0.012196838
45	0xbeea6052	-0.45776612
46	0x3da0ebad	0.078574516
47	0x3ecd66da	0.40117532
48	0x3dbd6d3a	0.09249349
49	0xbe2d031a	-0.16895714
50	0x3ecf07c9	0.40435627
51	0x3e6a0e1b	0.22856943
52	0x3e9bf02c	0.30456674
53	0x3ef9b1bc	0.48768413
54	0xbe596189	-0.21228613
55	0x3f4ba813	0.79553336
56	0x3eadd25e	0.3394956
57	0xbd2d0c7e	-0.04224824
58	0xbec9c432	-0.39407498
59	0x3e3b8faf	0.1831653
60	0xbe8e9596	-0.278485
61	0xbe5b9fb9	-0.21447648
62	0xbe9f1f9c	-0.31078804
63	0xbe68ebda	-0.2274622
64	0x3ed0c085	0.4077188
65	0xbd3b4822	-0.045723088
66	0x3e351375	0.17683204
67	0x3d8fc255	0.07019488
68	0x3e3ca882	0.18423656
69	0xbf039874	-0.514045
70	0x3e1e16f6	0.15438446
71	0x3ee19c8e	0.44064754
72	0x3e928b55	0.28621927
73	0x3e976f7f	0.29577252
74	0x3eab4a19	0.3345497
75	0x3ed6fe3d	0.41990843
76	0xbc533c46	-0.012892788
77	0xbf0075f5	-0.5017999
78	0xbe3cedf9	-0.18450154
79	0x3e103d9d	0.14086004
80	0x3ea9bf6a	0.3315385
81	0xbf602a93	-0.87564963
82	0x3e17cf7e	0.14825246
83	0xbd11eda1	-0.03562701
84	0x3c571eac	0.013129871
85	0x3e6ebb53	0.23313646
86	0xbf0af3d6	-0.54278314
87	0xbee3131b	-0.44350514
88	0x3ec27a9f	0.37984177
89	0x3ede842c	0.43460214
90	0xbd37484c	-0.044746682
91	0xbd8089bf	-0.06276273
92	0x3e94aeb1	0.2903953
93	0xbeb4e22f	-0.35328814
94	0xbe4eb101	-0.20184709
95	0xbea6cb00	-0.32576752
96	0x3f05741c	0.52130294
97	0x3e95437c	0.2915305
98	0x3eb9f145	0.36316887
99	0xbc91aad4	-0.017781653
100	0xbd1c8347	-0.038211133
101	0xbe431221	-0.19049884
102	0x3eb1e729	0.34746674
103	0x3d79836a	0.06091634
104	0xbe3cf008	-0.1845094
105	0x3d8cc9bf	0.068744175
106	0xbe952a09	-0.29133633
107	0x3e55a66c	0.20864266
108	0x3e2f5406	0.17121896
109	0x3eb43e91	0.35203984
110	0x3b9844e6	0.004646885
111	0x3ee74437	0.4516923
112	0xbe360057	-0.17773567
113	0xbe967953	-0.29389438
114	0x3edb1c83	0.4279519
115	0x3e1795f9	0.14803304
116	0x3d2f794d	0.04284029
117	0x3ecea889	0.40362957
118	0xbd59d932	-0.05318565
119	0x3ecea616	0.4036109
120	0xbe2c5715	-0.16830094
121	0xbf79ec46	-0.9762615
122	0x3e625495	0.22102578
123	0x3e8a1df2	0.2697597
124	0x3e2a94f7	0.16658388
125	0x3f053796	0.5203794
126	0x3df32fd8	0.1187436
127	0x3f07ff08	0.5312352
128	0x3db8c56e	0.09022032
129	0x3f22c357	0.63579315
130	0x3e0f376b	0.13985984
131	0x3e47db20	0.19517183
132	0xbd068246	-0.032839082
133	0x3e806ea8	0.25084424
134	0xbd6753ca	-0.05647639
135	0x3ec10502	0.37699133
136	0x3eada26a	0.33912975
137	0x3ef8c233	0.48585662
138	0xbe5dad63	-0.21648173
139	0x3e9f7da9	0.3115056
140	0x3e06a5a4	0.13149124
141	0x3cf36e2e	0.029715624
142	0x3cb76dff	0.022391317
143	0x3f099f51	0.5375872
144	0xbdb112a2	-0.08646132
145	0xbe84ccfa	-0.25937635
146	0xbe4cafee	-0.19988987
147	0x3dd753ca	0.10514028
148	0x3f11c75c	0.56944823
149	0x3e30c2f8	0.17261875
150	0x3e6dfa3e	0.23239991
151	0xbeb02a0d	-0.34407082
152	0xbd6f4018	-0.058410734
153	0xbe087aca	-0.1332809
154	0x3df41070	0.11917198
155	0xbc51b0bc	-0.012798484
156	0x3eab1008	0.33410668
157	0x3e53a5ff	0.20668791
158	0x3dcfe00b	0.10150155
159	0x3cb96cf2	0.022634957
160	0x3ef14953	0.47126254
161	0x3ceca33c	0.02888643
162	0x3ea0ffdc	0.31445205
163	0xbebaf710	-0.3651662
164	0x3e9884e6	0.29788893
165	0xbe62443e	-0.22096345
166	0x3e8a8fdf	0.2706289
167	0x3da337f1	0.07969654
168	0xbe255e5f	-0.16149281
169	0xbe1d6700	-0.15371323
170	0xbe9f3723	-0.31096753
171	0x3e2a604a	0.16638294
172	0x3f039c9a	0.5141083
173	0x3df4a439	0.119453855
174	0xbddde5f0	-0.10834873
175	0x3f010ccb	0.50410146
176	0x3ea5f328	0.32412076
177	0x3dec4509	0.11536605
178	0x3e088bd7	0.13334595
179	0x3e0539ef	0.13010381
180	0x3e8c9486	0.27457064
181	0x3ecca3e7	0.39968798
182	0xbea6e1fd	-0.3259429
183	0xbea96d04	-0.33090985
184	0xbdc009a4	-0.09376839
185	0xbf1dfd9c	-0.617151
186	0xbf0f2a0b	-0.5592353
187	0xbc9ab20d	-0.01888373
188	0xbe8887e6	-0.26666182
189	0xbda61074	-0.08108607
190	0xbeb1bebd	-0.34715834
191	0x3f35e82f	0.7105741
192	0xbd4e17ad	-0.050315548
193	0x3e1d7257	0.15375648
194	0x3f1582ae	0.58402526
195	0x3dbaf793	0.09129252
196	0xbd4d3d1f	-0.050107118
197	0xbed6aad6	-0.41927212
198	0x3e810b25	0.25203815
199	0x3eaa6dd8	0.3328693
200	0x3daf9d06	0.08574872
201	0x3dc625ee	0.09675203
202	0x3e5ee88d	0.21768399
203	0xbe82dd0c	-0.2555927
204	0x3e46ae38	0.19402397
205	0x3ea57e29	0.32322815
206	0x3e85feb0	0.26170874
207	0xbf3a012a	-0.72658026
208	0xbdc0c690	-0.09412873
209	0xbe88dd5a	-0.26731378
210	0x3edd31fc	0.43202198
211	0x3f282f82	0.6569749
212	0xbea95287	-0.33070776
213	0x3eaf656b	0.34257063
214	0xbf468cce	-0.775586
215	0xbeb67480	-0.35635757
216	0xbf15fd06	-0.5858921
217	0x3e1d66ee	0.15371296
218	0x3e0a2e95	0.13494332
219	0x3b546824	0.0032410705
220	0xbefb9d0f	-0.49143264
221	0x3eaa4aea	0.3326028
222	0xbe719b66	-0.23594436
223	0x3e90e1f5	0.28297392
224	0xbe906a01	-0.28205875
225	0xbe0092a5	-0.1255594
226	0x3e271a28	0.16318572
227	0xbed8eb24	-0.42366898
228	0x3e9bef2a	0.30455905
229	0x3e82d0c7	0.2554991
230	0xbe089898	-0.1333946
231	0x3eebb3b3	0.46035537
232	0x3dcb487e	0.09925936
233	0xbe24b85c	-0.16085953
234	0x3f020728	0.5079217
235	0xbedb7317	-0.42861244
236	0x3e058187	0.13037692
237	0xbd52d84b	-0.051475804
238	0x3e8b77bb	0.27239785
239	0xbed1cd81	-0.409771
240	0x3988215c	0.00025964796
241	0x3de7aa99	0.11311836
242	0xbe98937b	-0.2980002
243	0x3e230368	0.15919268
244	0xbf2e0939	-0.6798282
245	0x3c86f28e	0.016473081
246	0x3e4334b2	0.1906307
247	0xbeb85c22	-0.36007792
248	0x3e7963ef	0.24354528
249	0xbf7153de	-0.94268596
250	0xbf183a70	-0.5946417
251	0xbf07aaba	-0.52994883
252	0x3ea80688	0.32817483
253	0xbd27415a	-0.04083381
254	0x3e6fb79e	0.23409888
255	0x3eb4819a	0.35255128

enc.base_model.features.weight f4 [2356, 8]
0	0x3f800000	1.0
1	0x00000000	0.0
2	0x00000000	0.0
3	0x00000000	0.0
4	0x00000000	0.0
5	0x00000000	0.0
6	0x00000000	0.0
7	0x00000000	0.0
8	0x3f800000	1.0
9	0x00000000	0.0
10	0x00000000	0.0
11	0x00000000	0.0
12	0x00000000	0.0
13	0x00000000	0.0
14	0x00000000	0.0
15	0x00000000	0.0
16	0x3f800000	1.0
17	0x00000000	0.0
18	0x00000000	0.0
19	0x00000000	0.0
20	0x00000000	0.0
21	0x00000000	0.0
22	0x00000000	0.0
23	0x00000000	0.0
24	0x3f800000	1.0
25	0x00000000	0.0
26	0x00000000	0.0
27	0x00000000	0.0
28	0x00000000	0.0
29	0x00000000	0.0
30	0x00000000	0.0
31	0x00000000	0.0
32	0x3f800000	1.0
33	0x00000000	0.0
34	0x00000000	0.0
35	0x00000000	0.0
36	0x00000000	0.0
37	0x00000000	0.0
38	0x00000000	0.0
39	0x00000000	0.0
40	0x3f800000	1.0
41	0x00000000	0.0
42	0x00000000	0.0
43	0x00000000	0.0
44	0x00000000	0.0
45	0x00000000	0.0
46	0x00000000	0.0
47	0x00000000	0.0
48	0x3f800000	1.0
49	0x00000000	0.0
50	0x00000000	0.0
51	0x00000000	0.0
52	0x00000000	0.0
53	0x00000000	0.0
54	0x00000000	0.0
55	0x00000000	0.0
56	0x3f800000	1.0
57	0x00000000	0.0
58	0x00000000	0.0
59	0x00000000	0.0
60	0x00000000	0.0
61	0x00000000	0.0
62	0x00000000	0.0
63	0x00000000	0.0
64	0x3f800000	1.0
65	0x00000000	0.0
66	0x00000000	0.0
67	0x00000000	0.0
68	0x00000000	0.0
69	0x00000000	0.0
70	0x00000000	0.0
71	0x00000000	0.0
72	0x3f800000	1.0
73	0x00000000	0.0
74	0x00000000	0.0
75	0x00000000	0.0
76	0x00000000	0.0
77	0x00000000	0.0
78	0x00000000	0.0
79	0x00000000	0.0
80	0x3f800000	1.0
81	0x00000000	0.0
82	0x00000000	0.0
83	0x00000000	0.0
84	0x00000000	0.0
85	0x00000000	0.0
86	0x00000000	0.0
87	0x00000000	0.0
88	0x3f800000	1.0
89	0x00000000	0.0
90	0x00000000	0.0
91	0x00000000	0.0
92	0x00000000	0.0
93	0x00000000	0.0
94	0x00000000	0.0
95	0x00000000	0.0
96	0x3f800000	1.0
97	0x00000000	0.0
98	0x00000000	0.0
99	0x00000000	0.0
100	0x00000000	0.0
101	0x00000000	0.0
102	0x00000000	0.0
103	0x00000000	0.0
104	0x3f800000	1.0
105	0x00000000	0.0
106	0x00000000	0.0
107	0x00000000	0.0
108	0x00000000	0.0
109	0x00000000	0.0
110	0x00000000	0.0
111	0x00000000	0.0
112	0x3f800000	1.0
113	0x00000000	0.0
114	0x00000000	0.0
115	0x00000000	0.0
116	0x00000000	0.0
117	0x00000000	0.0
118	0x00000000	0.0
119	0x00000000	0.0
120	0x3f800000	1.0
121	0x00000000	0.0
122	0x00000000	0.0
123	0x00000000	0.0
124	0x00000000	0.0
125	0x00000000	0.0
126	0x00000000	0.0
127	0x00000000	0.0
128	0x3f800000	1.0
129	0x00000000	0.0
130	0x00000000	0.0
131	0x00000000	0.0
132	0x00000000	0.0
133	0x00000000	0.0
134	0x00000000	0.0
135	0x00000000	0.0
136	0x3f800000	1.0
137	0x00000000	0.0
138	0x00000000	0.0
139	0x00000000	0.0
140	0x00000000	0.0
141	0x00000000	0.0
142	0x00000000	0.0
143	0x00000000	0.0
144	0x3f800000	1.0
145	0x00000000	0.0
146	0x00000000	0.0
147	0x00000000	0.0
148	0x00000000	0.0
149	0x00000000	0.0
150	0x00000000	0.0
151	0x00000000	0.0
152	0x3f800000	1.0
153	0x00000000	0.0
154	0x00000000	0.0
155	0x00000000	0.0
156	0x00000000	0.0
157	0x00000000	0.0
158	0x00000000	0.0
159	0x00000000	0.0
160	0x3f800000	1.0
161	0x00000000	0.0
162	0x00000000	0.0
163	0x00000000	0.0
164	0x00000000	0.0
165	0x00000000	0.0
166	0x00000000	0.0
167	0x00000000	0.0
168	0x3f800000	1.0
169	0x00000000	0.0
170	0x00000000	0.0
171	0x00000000	0.0
172	0x00000000	0.0
173	0x00000000	0.0
174	0x00000000	0.0
175	0x00000000	0.0
176	0x3f800000	1.0
177	0x00000000	0.0
178	0x00000000	0.0
179	0x00000000	0.0
180	0x00000000	0.0
181	0x00000000	0.0
182	0x00000000	0.0
183	0x00000000	0.0
184	0x3f800000	1.0
185	0x00000000	0.0
186	0x00000000	0.0
187	0x00000000	0.0
188	0x00000000	0.0
189	0x00000000	0.0
190	0x00000000	0.0
191	0x00000000	0.0
192	0x3f800000	1.0
193	0x00000000	0.0
194	0x00000000	0.0
195	0x00000000	0.0
196	0x00000000	0.0
197	0x00000000	0.0
198	0x00000000	0.0
199	0x00000000	0.0
200	0x3f800000	1.0
201	0x00000000	0.0
202	0x00000000	0.0
203	0x00000000	0.0
204	0x00000000	0.0
205	0x00000000	0.0
206	0x00000000	0.0
207	0x00000000	0.0
208	0x3f800000	1.0
209	0x00000000	0.0
210	0x00000000	0.0
211	0x00000000	0.0
212	0x00000000	0.0
213	0x00000000	0.0
214	0x00000000	0.0
215	0x00000000	0.0
216	0x00000000	0.0
217	0x3f800000	1.0
218	0x00000000	0.0
219	0x00000000	0.0
220	0x00000000	0.0
221	0x00000000	0.0
222	0x00000000	0.0
223	0x00000000	0.0
224	0x00000000	0.0
225	0x3f800000	1.0
226	0x00000000	0.0
227	0x00000000	0.0
228	0x00000000	0.0
229	0x00000000	0.0
230	0x00000000	0.0
231	0x00000000	0.0
232	0x00000000	0.0
233	0x3f800000	1.0
234	0x00000000	0.0
235	0x00000000	0.0
236	0x00000000	0.0
237	0x00000000	0.0
238	0x00000000	0.0
239	0x00000000	0.0
240	0x00000000	0.0
241	0x3f800000	1.0
242	0x00000000	0.0
243	0x00000000	0.0
244	0x00000000	0.0
245	0x00000000	0.0
246	0x00000000	0.0
247	0x00000000	0.0
248	0x00000000	0.0
249	0x3f800000	1.0
250	0x00000000	0.0
251	0x00000000	0.0
252	0x00000000	0.0
253	0x00000000	0.0
254	0x00000000	0.0
255	0x00000000	0.0
