analog/best_model.pkl (torch_old, 87175 bytes, 9 tensors)

weight f4 [15, 15]
00000000: 0774 90be 8b51 1fbf 5e3b 253d 0e94 82be
00000010: 12eb 61be e736 4dbc c44a 05be 9472 26be
00000020: 7051 03be 3e14 cdbe ab50 13bf 08a6 f6bd
00000030: b5a2 453e 9bcd 40bd f706 963e f370 c33d
00000040: 8ab8 793f dfdd 7d3d 4b5d b6bd 90bc 193e
00000050: 741a 34bf 63b9 00be db36 cebf 512a a53e
00000060: c2ab d8be 6ba5 c3be b20a 38be 63d9 03bf
00000070: 23c6 77bf e41b b7bd 16e8 e93e 54cd aabe
00000080: 1e8a 59bc 1ed1 e4bd fde2 0cbf 74d0 d2be
00000090: 34c0 f0be 5598 223c 2320 89bd 7d66 4d3e
000000a0: dc5c 0fbf ce8b f0bd c00a 1f3e 142f 27bf
000000b0: b7ec 0bbf 78f3 123d a6a9 b9be e81b c63e
000000c0: b905 9bbe b7e0 693e 4d12 73be 7722 4abe
000000d0: fca4 25bf 6e20 5a3e 14e0 cdbe 84f4 393d
000000e0: d181 793e 040d 9fbe 1fea 1bbe b6f8 1a3e
000000f0: 2e23 cc3e 00c3 8b3e 8f91 953e 0c90 df3e
00000100: d683 a6bd f1f5 ffbe 9858 113f 1f7b 64be
00000110: f510 b83d 521d 893e eebc e63d a72f d0be
00000120: 1223 5bbe f027 353e bd9c dd3d c628 febe
00000130: fc43 cdbd b713 2b3d 2935 05bf 7e8a 08bf
00000140: e535 a43e 1146 1ebf a177 9ebe c222 abbe
00000150: 533f 9cbe 0cc0 7cbe 9655 e0be 2581 073d
00000160: 6a9b 82be 4915 703c 01f6 c23e 97d0 22bf
00000170: 18e0 d6be 0f32 a3bd 6236 8fbe a4fb a5be
00000180: e950 f13d 84ec a2be 0483 95be 85a1 1f3d
00000190: 03a2 f3be 1ba4 b1be 34f8 14be ddfd 10bf
000001a0: 53e5 0bbf 92ee abbe 05c6 06c0 a5f4 54be
000001b0: 5d30 8ebd cb3c a5be 8d12 283e d1c5 463e
000001c0: df6a 563e fc79 4f3e f77e d33e b9cf 0ebd
000001d0: 2adf 33bf 6948 993e 32d2 8cbe bea0 15be
000001e0: ea92 f63e 389a 923b 1fa2 b23d f7c4 423e
000001f0: d3b7 f5be 92e2 38be 07f9 fabe 4df1 19bf
00000200: 64c4 ad3e 8e1a 07bf 1308 e53d 2365 c4be
00000210: d87c bf3e 93d1 c63c a207 773e 1438 78be
00000220: faf5 bebd 6675 113d 581e 903e 519c 4fbe
00000230: 9da1 dabe c809 003e 6dc2 6dbe e875 eabe
00000240: 3689 1b3e 9298 bfbe 54d6 c0bd 5a65 a43e
00000250: 8cbb 3a3e beee 80be 55c7 debe 5e36 3bbf
00000260: 1d43 5bbe e27a d63e 073e 333e 8c7f 5abe
00000270: 0c19 953e ebbc aabe 123a b9bd 0a8f fa3e
00000280: dc06 813d 1273 5cbe 2e9a 6a3e f7b9 acbe
00000290: 1629 8f3e a5ac 8a3e 45b7 073e 5b47 413e
000002a0: cea4 2ebe 43a5 7ebe f6e6 77be 5e4c 933e
000002b0: 7433 a0be ecab 053e 2129 02be 9cb6 07bf
000002c0: 838c 6d3e 9f72 9abe 82c2 803e 9c40 f7bd
000002d0: 1bfd 74be b97b c73d 7a68 ebbe 12e1 6f3e
000002e0: ba1b b7bd 356e 38bf f923 ee3d 09ff 193e
000002f0: 50c8 183e 9a5d 8b3e c113 d83c d77b cfbe
00000300: 8770 c13e 4893 2bbf 0aac b73d f28a f73d
00000310: 6f9b 32bf b67d ad3d 56c4 993e d20f a73d
00000320: 355e adbe 895d c83e 69f1 0e3f a3fb c1bd
00000330: 78c1 45be 79aa 343f 777d abbe e29b a73e
00000340: 6821 583f 7195 b7be 0699 81be a096 c53d
00000350: b3eb 04bf 1dfe 503a 4d4f 1e3e 4d99 f6be
00000360: 1e7d b1be 2176 333e d145 393e 5e09 a13e
00000370: dbe1 b43e aa86 c7ba c786 9f3e 107f 90be
00000380: 1438 3d3e
-0.28213522 -0.622338 0.04033982 -0.25503582 -0.22062328 -0.012525297 -0.13016802 -0.16254646
-0.12824035 -0.40054506 -0.57544965 -0.12043387 0.19300349 -0.04707108 0.2930219 0.09543028
0.9754721 0.06197917 -0.08904513 0.15013337 -0.70352864 -0.1257072 -1.611049 0.32258847
-0.4231854 -0.3821214 -0.1797283 -0.5150358 -0.9678671 -0.089408666 0.4568488 -0.33359778
-0.013277559 -0.111726984 -0.55033857 -0.41174662 -0.4702164 0.009924014 -0.06695583 0.20058627
-0.5600107 -0.11745416 0.15531445 -0.6530621 -0.54658073 0.03587672 -0.36262244 0.38693166
-0.30277804 0.22839628 -0.2373745 -0.1973971 -0.6470487 0.21301433 -0.4021002 0.045399204
0.24365927 -0.31064618 -0.15226029 0.15133938 0.3987059 0.2729721 0.29212615 0.43664587
-0.081306145 -0.49992326 0.5677581 -0.22312592 0.08987609 0.26780182 0.11266504 -0.40661356
-0.21400097 0.17691016 0.10820911 -0.49640483 -0.100227326 0.04176685 -0.5203424 -0.5333632
0.32072368 -0.6182566 -0.30950645 -0.33424956 -0.30517063 -0.24682635 -0.43815297 0.033082146
-0.25509197 0.014653512 0.3807831 -0.6359953 -0.41967845 -0.07968532 -0.27971178 -0.3241855
0.117830105 -0.31821072 -0.2920152 0.038972396 -0.47584543 -0.34695515 -0.14547807 -0.56637365
-0.54646796 -0.33580452 -2.1058362 -0.2079645 -0.06942818 -0.32272944 0.16413327 0.19411398
0.20939206 0.20261377 0.41307804 -0.03486607 -0.70262396 0.29938057 -0.27504116 -0.146121
0.48158962 0.0044739507 0.087223284 0.19020449 -0.4799181 -0.1805518 -0.49018118 -0.6013382
0.33938897 -0.52774894 0.11183181 -0.3835841 0.37399936 0.024269855 0.24124005 -0.24240142
-0.0932426 0.03551235 0.2814815 -0.20274474 -0.42701426 0.12503731 -0.23218699 -0.4579308
0.1518906 -0.3742109 -0.0941588 0.32108575 0.18235606 -0.25182146 -0.43511453 -0.7312983
-0.2141232 0.41890627 0.1750413 -0.21337718 0.29120672 -0.33347258 -0.09044279 0.48937255
0.063001364 -0.21528271 0.22910377 -0.3373563 0.27961034 0.27084842 0.13253506 0.18874876
-0.17055055 -0.2486773 -0.24209198 0.287692 -0.31289256 0.13053864 -0.12711002 -0.53013015
0.23198132 -0.30165574 0.25148398 -0.1207287 -0.23924677 0.09740395 -0.45978147 0.23425701
-0.08940835 -0.7204316 0.11627955 0.15038694 0.14920163 0.2721985 0.026376607 -0.4052417
0.37781164 -0.6702161 0.08968361 0.120870486 -0.6976842 0.08471243 0.30032605 0.08157314
-0.33860937 0.39133862 0.5583711 -0.09471824 -0.19312084 0.7057262 -0.3349416 0.32736117
0.84425974 -0.35856202 -0.2531206 0.0964787 -0.5192215 0.0007972436 0.15459938 -0.48163834
-0.3466577 0.17525531 0.18093039 0.3145246 0.35328564 -0.0015222628 0.31157514 -0.2822194
0.18478423

enc.weight_in f4 [15, 30]
00000000: 3020 3c3d 2c6d 143e 4805 c63e 6d45 2cbe
00000010: 4995 82be f573 acbc 79f8 c83e 5661 333d
00000020: 7291 c13e 5357 1b3e d18f c4be 3f66 123f
00000030: 8605 c33e 824f 0a3c 9365 98bd 62ed 4ebd
00000040: 3594 763e b977 f1bd 7e8f 9ebe 59c8 c8be
00000050: 5526 d3be ec43 f33e 5886 1ebe f008 9c3d
00000060: 5dce ec3c d91d 333e 0aca 04be 788a 34be
00000070: 6614 28bf 4444 c4be a592 bdbe 9f9a 2dbf
00000080: c6a9 bf3d d049 513d 07fc 163f 864e 283e
00000090: db8f 45be 70b0 393e 2e8a 8bbe 93a4 963e
000000a0: 3d8b c6be 9234 c13d ed70 493e 6bf2 babc
000000b0: 7819 773d 0457 36be 2968 b9be 55e5 2c3e
000000c0: 7e6d cabe df18 93be 491a c0be ddc4 8e3e
000000d0: 8f63 c93e 71b3 98be abfb 4abc 7f56 093e
000000e0: 0bc5 12bf 5862 63be 976d d8be de53 62be
000000f0: 9e5f 8d3e ae32 4c3f b621 133c 2162 3abd
00000100: 9a34 a13b 02cc 9bbc 7afc 753e c776 013f
00000110: 95d9 a93c 3c17 2b3e be39 f03e 9111 41be
00000120: 20c7 c23e 0212 173c 0114 7c3d a479 8a3e
00000130: 594b 313f 8881 843d 2327 99be 59ed 95bc
00000140: f9e2 563e e223 98bd 496c c03e 573b a13e
00000150: 7134 76be 1b61 e6bd 27ea b63b 0416 9abe
00000160: bc08 42bd cf74 263e f1e7 c6be ab39 bebe
00000170: 7c57 933e 5e52 813e d6c3 2c3e 793b 51be
00000180: 126a ac3d 3168 0cbe 6d69 c5be 52fc 263e
00000190: 935f 43be 01cf 6e3e f344 be3e 872c 7c3e
000001a0: 2454 e33d 73a6 4ebe e817 18be 7dc1 163f
000001b0: cdf5 68be a4a4 c23e 86a7 133e 2951 513e
000001c0: 19fb d23e ba14 06bd f905 87bd 3bc8 413e
000001d0: 6c2a bc3e 53cf 31bd 607d cd3d 86fb e5bc
000001e0: caba d03d c890 04bf 370f 873e 560c 533e
000001f0: 9a1c 1c3f 66cb 4b3f beac 66be 9098 24be
00000200: 7fbb 81be 58ab b13e 80ed aebe a4e3 c33e
00000210: e4aa 353d 0e7e 42be f0a5 653d 21b1 22be
00000220: 4fb0 083d e4cc a5be 178e 763e 3151 b03c
00000230: 57a3 dbbe cdb3 203e e9c0 a1bd 6098 5d3e
00000240: 7eba c73e 6982 fbbd 2e81 79be 2886 cfbe
00000250: 6184 44bd a8ed aabe cf16 04be 4813 32be
00000260: 6faa c33e 745f 7ebe f94f 943e c375 7f3f
00000270: 82c2 3ebe 3612 c73e 159e b03e fb07 e03e
00000280: 7ac3 c43d 94b1 113e 2304 873d 1051 cc3a
00000290: 2763 b6bc 9175 15be 99f8 4d3b 3e17 cd3e
000002a0: 5eb6 293f c3c7 3bbf 55b9 3e3f 0f1d 8abe
000002b0: c2ba 5fbe 5d49 013d 2d92 823c 3fdd 40bc
000002c0: 4227 bc3d 74b0 333e f012 be3e 8e5a 083f
000002d0: af83 ecbd 0785 b3be b74b 943e c4b7 cf3c
000002e0: c19f 143f 0e21 eabe 40cb 20bf 89a2 acbe
000002f0: 0578 613e 956e aabe da10 433e f7f2 fa3e
00000300: e2b9 9dbd d052 b73d 8962 cd3e 7d39 b8bc
00000310: 5ee8 d8bc b68b 4d3e 6642 d4bb 23a2 4bbe
00000320: 818d bebe de6d 55be 87cb 813e 40f8 143e
00000330: 760f 8c3e 6db1 853e 78a9 c0bd 97df 87be
00000340: 3a81 b0be 675b b23d c92b 5dbe 4d17 f5bb
00000350: bcef 1c3e 2ebe 2f3d 0621 d0be 24a9 553e
00000360: 5069 1ebe a931 0d3e 3495 b23e 03b0 bcbd
00000370: d284 223e 9415 9f3e 221e fdbc 996e 133e
00000380: 9dd6 253e 464e 4a3e b840 093e eb57 8dbc
00000390: 8d00 07bf 85f7 2a3d c28d d8be eed4 163f
000003a0: db6c c83d f898 90bd c09f 053e e171 9bbd
000003b0: de6d 82be e7dc a03e 53bd 26bf 2759 133d
000003c0: 1ad8 b9be f159 ebbb 86ce 0fbd 1deb 53bc
000003d0: 8390 353d 1ba5 2ebe 878a 933e 5947 9e3e
000003e0: b11b fe3c 6987 4c3d adfb 2fbf ec90 83be
000003f0: ae94 873e bbf5 3ebe b34a 903e c4a6 51be
0.045929134 0.14494771 0.38675904 -0.16823359 -0.2550452 -0.021051386 0.3925207 0.043794
0.37806278 0.1517003 -0.38390973 0.57187265 0.38090152 0.008441808 -0.07441249 -0.050519355
0.24079974 -0.117904134 -0.3096885 -0.39215353 -0.41240183 0.47512758 -0.15480936 0.07618892
0.028906995 0.17491855 -0.12967697 -0.17630947 -0.65656126 -0.38333333 -0.37025943 -0.6781406
0.093585536 0.051095784 0.58978313 0.16436204 -0.19293158 0.18133712 -0.2725386 0.29422435
-0.38778105 0.09433855 0.19671984 -0.022820672 0.060327023 -0.17806631 -0.3621228 0.16884358
-0.3953666 -0.28729913 -0.37520054 0.2788457 0.3933377 -0.29824403 -0.012389104 0.13411902
-0.57331914 -0.22205484 -0.4227111 -0.22102305 0.27612013 0.7976483 0.008980205 -0.04550374
0.0049196007 -0.019018177 0.24022093 0.50571865 0.020733634 0.16708082 0.46919054 -0.18854357
0.38042545 0.009220602 0.061542515 0.2704593 0.69255596 0.064700186 -0.2991267 -0.018301653
0.2098502 -0.07428719 0.37582615 0.31490585 -0.24043442 -0.1124899 0.0055821124 -0.30094922
-0.04737161 0.16255496 -0.38848832 -0.37153372 0.28777683 0.25258154 0.1687158 -0.20432843
0.08418669 -0.13711621 -0.38556996 0.1630719 -0.19079427 0.23321153 0.3716198 0.24626361
0.11100033 -0.20180683 -0.1485287 0.5888899 -0.22750016 0.38016236 0.14419374 0.20441116
0.41207197 -0.03273461 -0.06592936 0.18924038 0.36751115 -0.04341061 0.10033679 -0.028074037
0.10191877 -0.5178342 0.26378796 0.20610175 0.6098114 0.79607236 -0.22526833 -0.16073823
-0.2533836 0.34701037 -0.34165573 0.38259614 0.044352427 -0.18993399 0.056066453 -0.15887882
0.033371266 -0.32382882 0.2407764 0.02152309 -0.42898056 0.15693589 -0.07898123 0.21640158
0.3900947 -0.12280733 -0.24365684 -0.4053204 -0.04797781 -0.33384442 -0.12899326 -0.17390168
0.38215968 -0.248411 0.28967264 0.99789065 -0.18628886 0.3888108 0.34495607 0.4375609
0.09607597 0.14227897 0.06592586 0.0015588123 -0.022264076 -0.1459563 0.0031428693 0.40056795
0.66293895 -0.7335169 0.74501544 -0.26975295 -0.21848586 0.031564105 0.015938843 -0.011771499
0.09187175 0.1754778 0.37123823 0.53263175 -0.11548554 -0.3506243 0.28964016 0.025356181
0.58056265 -0.45728344 -0.62810135 -0.33717754 0.2201844 -0.33287492 0.19049397 0.49013492
-0.0770147 0.08951342 0.4011424 -0.02248835 -0.026477989 0.20072827 -0.006477642 -0.19886069
-0.37217334 -0.20842692 0.25350592 0.14547825 0.27355546 0.26111928 -0.094073236 -0.26537773
-0.34473592 0.0870884 -0.21598734 -0.0074795843 0.15325826 0.04290598 -0.40650195 0.20865303
-0.15469861 0.13788475 0.34879458 -0.09213259 0.1587098 0.3107115 -0.030898158 0.14397658
0.1619515 0.19756421 0.13403594 -0.017253837 -0.52735215 0.04173996 -0.42295653 0.58918655
0.097863875 -0.070604265 0.13049221 -0.0759008 -0.25474447 0.31418535 -0.65132636 0.035973694
-0.36297685 -0.0071823527 -0.035109065 -0.012934473 0.04432727 -0.1705517 0.28816625 0.3091381
0.031019064 0.049933825 -0.687434 -0.25696504 0.2648062 -0.18648426 0.2818199 -0.20473772

enc.weight_out f4 [15, 30]
00000000: e91f 64be 7586 73be fb23 b73c e895 6d3e
00000010: 9998 5abe 6d63 36be 59f6 a23e bbaa c5bb
00000020: 5a19 963e ce41 b9bd 267e c93e c2ba a1bd
00000030: 12e6 8c3c cac4 a93d 9ae7 bdbe 3490 9e3e
00000040: 45ef 973e 5285 72be 6a7b 01bf b44d a6bf
00000050: ad1e 87bf 7270 e53d e74b 713e 5eaa e1be
00000060: 1b81 5e3e f4b3 103e 3b69 a9be 460c 213e
00000070: d68e 17bf 4f21 02be c4cd 60be 5d5a 863b
00000080: 527c ae3d ddb0 13be 9b10 abbd 08f9 88bd
00000090: 201c 4a3e 768c 42be f206 c53d 25ed cfbd
000000a0: f629 6fbc 2dae 66be 628a 8f3e cf5d 7e3e
000000b0: 4acd 0dbe 409c b73e 6feb 893e 8721 663e
000000c0: 8d40 083f fad1 7a3b a073 313f c2c4 debd
000000d0: a1ab 123e dbf9 d63d 9ae0 833d 3e68 a13e
000000e0: d4ad 093d 4862 9bbe 6a0f f2bd 9bc9 533e
000000f0: c0bf 933d bea7 aabe a90c 1bbf 8b10 e13c
00000100: e1b5 d7be cd1b 27be 464b 02be 396b 9abe
00000110: 7dac a63e b270 a73e d632 6bbd 2a0e 0c3f
00000120: cdb1 ef3e b5b0 e8be 805c abbe 0821 76be
00000130: d74c af3e f172 90be 46df 0abb cb4c 3b3f
00000140: b42d 003f e92d 443c b7b9 76bc 8aff e2be
00000150: 9024 7abc 13f1 8a3d 4ec8 96bd 4bf5 1ebf
00000160: 6ddd 03bf f292 3ebf 63d1 9c3e 7c84 57be
00000170: e119 02bd b5ec 723e bfe7 a3be 118c eebe
00000180: ae98 443e 6413 8abe c093 c63d 2fc4 833e
00000190: 6cd8 a2be 1d27 e43e 766c fcbb fa5c bdbd
000001a0: 38d2 acbb 7e06 f93c d6cb 9dbe 9384 02be
000001b0: 3ddc 9f3e b67e b1be 02a9 f0be 13aa 8e3e
000001c0: 46b2 b23d aac2 433e 0ab0 76be 1fc4 b7bc
000001d0: 1308 99be 0fcd 12be 64fe ec3c 44c0 b5bd
000001e0: dc32 b2be fff7 ba3d eb65 9e3e 67bc 4fbd
000001f0: 2190 5fbe fefe f2be 2c5d c93e b283 9c3b
00000200: e609 91be 6458 913e 1744 0cbf 9448 893c
00000210: 1301 9e3e f448 793e 0243 ca3e 9f33 c03d
00000220: 3f15 3fbd 50e7 b63e d646 303e a202 f93e
00000230: 5b89 c5be 9272 b73e 6876 d33d 40a0 1bbe
00000240: 37ec b63d b731 df3d 73b3 92bd 433b 8e3d
00000250: 5110 4b3e 8b30 e4bd 3bf0 a23e 6f29 943d
00000260: 9584 013f 3f26 15be 6153 eb3d cb12 823e
00000270: d77d 843e a886 8bbe bf2c 4bbd 4806 e73e
00000280: dc40 bc3d a132 973d ce55 b73d 2c43 333c
00000290: b6b5 95bc c155 2abd 269a 883e 2a53 b33e
000002a0: db7d 0cbf 686c 283f cd05 c7be 288b 84be
000002b0: c86d ce3b 7a95 d13d 98d2 123f f56a e9bc
000002c0: bb65 ff3c 55fa b4bd a86b cd3d c209 a0be
000002d0: 84d9 04be 9518 093f 31b7 03be c748 a4bc
000002e0: 7877 02bf 2605 b4bf 6094 d93d 107f 003f
000002f0: 0c21 24be ed3a 3ebe a946 a0be 7598 3fbf
00000300: 60f5 503e 66d0 7c3f bb77 00be 1c50 b6bd
00000310: cedf 323e 1481 eebb d95b 173f 6804 53bf
00000320: dabb a3bc a349 e03e 4b92 a83e d0fa 833e
00000330: 7e9c 813e e2a2 d8be c83c 85be 7c5f 5e3e
00000340: f94e 463d d6f0 303d 45c1 a0bd b1c5 cb3e
00000350: 65ca a0be 30ce 40be a2ca 10bf 788c 12bb
00000360: b931 c7be dbdf 953e 9372 173d f1d2 3a3e
00000370: 4196 8b3e 7914 953e 4b1d 51be c6f0 3abc
00000380: 4c4d 023e c6eb b4be fe17 173e de7b a83d
00000390: 6cd0 50bf 4315 ce3e c4f4 913e 52d1 1ebf
000003a0: e7d2 bcbe ce31 8d3e 0e14 463e 2288 12be
000003b0: 4fcf 9d3d 43e1 8fbb 4fc1 9abe 7f16 653e
000003c0: d4e5 d9be 21b8 59be b82f cb3e e152 c33d
000003d0: f5d2 a73e dec1 50be 31be 03bd f266 583d
000003e0: b069 a33e 45e2 903e 4dff 8c3e 29ea 223e
000003f0: cc44 823e 02f8 b2be da12 d73e 2198 353d
-0.22277798 -0.2378176 0.022356024 0.23201716 -0.21347274 -0.17811365 0.31828573 -0.0060323155
0.29316217 -0.090457544 0.39354056 -0.07896949 0.01719955 0.08289488 -0.3709076 0.30969393
0.29674736 -0.2368367 -0.5057894 -1.2992463 -1.0556237 0.11203088 0.2356411 -0.44075292
0.21728937 0.14131147 -0.33088097 0.15727338 -0.59202325 -0.12708019 -0.21953493 0.0041001276
0.08519806 -0.14422937 -0.083527766 -0.06688124 0.19737291 -0.18998894 0.09620465 -0.101526536
-0.014597407 -0.2252738 0.28035265 0.24840473 -0.13847843 0.35861397 0.26937434 0.22473727
0.53223497 0.0038272128 0.69317055 -0.10877372 0.14323284 0.10496875 0.06439324 0.31524843
0.03361304 -0.3034842 -0.11819346 0.20682375 0.07214308 -0.33331102 -0.6056619 0.027473709
-0.4213095 -0.16319199 -0.12724027 -0.3015993 0.32553473 0.32703167 -0.057421528 0.5470911
0.4681534 -0.45447317 -0.3346901 -0.24036038 0.34238312 -0.28212693 -0.002119021 0.7316405
0.5006974 0.011973836 -0.015058926 -0.44335586 -0.015267506 0.067842625 -0.07362424 -0.6209304
-0.51509744 -0.7444297 0.306285 -0.21046633 -0.03176296 0.23723109 -0.32012746 -0.46591237
0.19198868 -0.2696792 0.0969615 0.25735614 -0.31805742 0.4456109 -0.0077033592 -0.092462495
-0.0052740835 0.030398604 -0.30819577 -0.12745886 0.31222716 -0.34666985 -0.47003943 0.2786413
0.08725409 0.19117227 -0.24090591 -0.022432385 -0.29888973 -0.14336036 0.028929897 -0.088745624
-0.34804428 0.09129333 0.30937132 -0.050716784 -0.21832325 -0.4746017 0.39328897 0.0047764415
-0.28327864 0.2838775 -0.54791397 0.01675824 0.30860195 0.24344236 0.39504248 0.09384846
-0.04665112 0.35723352 0.17214522 0.4863482 -0.38581356 0.35829598 0.103253186 -0.1519785
0.08931773 0.10898154 -0.071631335 0.06944897 0.19830443 -0.11142071 0.31823906 0.07234465
0.5059293 -0.14565371 0.11490513 0.25404963 0.25877258 -0.27251172 -0.04960322 0.4512198
0.091920584 0.073827036 0.08951913 0.010941308 -0.018275123 -0.041585688 0.26680106 0.35024387
-0.5487954 0.65790415 -0.38871613 -0.25887418 0.006299708 0.102335885 0.5735259 -0.028493384
0.031176439 -0.088368095 0.100302994 -0.31257445 -0.129736 0.53553134 -0.1286285 -0.020054234
-0.50963545 -1.4064071 0.106240034 0.5019388 -0.16028231 -0.18577166 -0.3130391 -0.74842006
0.20406103 0.9875549 -0.12545674 -0.089019984 0.17468187 -0.007278571 0.59124523 -0.824286
-0.019987036 0.4380618 0.32924113 0.25777292 0.25314707 -0.4231177 -0.26022935 0.21716112
0.048415158 0.04319843 -0.07849363 0.39799264 -0.31404415 -0.18828654 -0.56559193 -0.0022361558
-0.38905123 0.2927235 0.0369745 0.1824453 0.27263072 0.29117182 -0.2042133 -0.011409944
0.12724799 -0.3533613 0.14755246 0.08226751 -0.81568027 0.40250596 0.28507054 -0.6203815
-0.36879656 0.2757706 0.19343588 -0.14309743 0.077055566 -0.004390867 -0.30225608 0.22371863
-0.42558157 -0.21261646 0.39684844 0.09537292 0.32778135 -0.20386454 -0.032163803 0.05283255
0.3191657 0.2829763 0.2753853 0.15909638 0.25443113 -0.3495484 0.4200657 0.044334535

enc.weight f4 [15, 30]
00000000: 1989 68bd 8f00 623e 4194 bb3d 9a55 9dbe
00000010: b036 d3be a2ed a03d f8fd 7d3c f167 833e
00000020: e300 703d 887e e33e ad4d c43e b2ef 9cbe
00000030: d2d3 e23d ea9c cabd aa77 843d 57d6 d73d
00000040: 09f7 e2bd 20da cbbe 6b3c f93e 2cdb 6e3d
00000050: ed66 f5be e2c9 4e3e 318e 58bf 2363 5b3e
00000060: 911e 65bd c3b6 013e 3366 9a3e df95 93be
00000070: c2b6 d6be 14d3 ef3d 9bfb 573f 6bfb 8ebd
00000080: 65bc d2bd 2385 24be f7ec 143f 807c 933e
00000090: 8f15 9fbe 30ad b13c a586 dabe 548f 3bbf
000000a0: 8038 983e 51ad a1bd e7d8 a33d 068d ddbe
000000b0: ab80 833e d5e2 a4be c247 72be 816b c43e
000000c0: e3e2 b03e f909 b2be 2425 ac3d d097 64bf
000000d0: 3de3 1b3d 0bc5 6bbe 6ab3 b63e 4e75 853e
000000e0: 0ae5 82bc bb95 82be 6bd0 ddbd 0c92 723e
000000f0: f213 043d 617b 0ebe 3e42 bdbe bb8f c7be
00000100: d0a8 453e e008 af3d f9fa 1ebd 81c0 45be
00000110: 7f6d c3be 132f 4dbe 6791 b3be 0388 c13d
00000120: b97e 82be 7185 093e 4d11 34be 0508 8cbd
00000130: 04f8 44bd bd3f 09bf e0fd a6bb 0f70 003e
00000140: 032c bcbd 92ee bcbd 29e7 f4be 37b4 ce3d
00000150: 7ae4 c9be 36a0 2cbd 9c57 653e 8a88 6a3e
00000160: 476b bcbc d5e7 17bf 0eed 72be 4340 c8be
00000170: 26e5 cc3e 8fc3 0a3e 8df4 b73e b4cc da3c
00000180: 8d72 1bbc 63b7 04be 7ed6 613d 63e1 b83e
00000190: f4d1 443e 7bd6 37be 59b5 f53d 0ab4 c93e
000001a0: 0497 01be 6a3a 4b3e a713 babd 6167 973e
000001b0: 46c9 ef3e 957c bcbe 64a8 853e defe 8dbc
000001c0: 5a8b c339 1177 9a3e f077 9d3e a665 afbd
000001d0: 7e01 a9be 6f3b 37be 0ee1 053e 31d7 853d
000001e0: 4d6e 35be 2cdc 79be 23e7 2ebe a4df 17be
000001f0: d554 293e 4e44 d2bd 79b9 113c 9d8f d1bd
00000200: 648d edbd b732 c73e fdf9 42be afd7 d3bd
00000210: fa37 3fbe 551d 10be 3999 41be 8d5e 543e
00000220: 150e e7be 1103 c5be a350 a0bd bc25 d6bd
00000230: fc72 433e 167f 3b3e 07c8 443e 7eac ef3c
00000240: ea8d 483e 9218 83be 16f3 cabe b13b 073e
00000250: 47ac f63d 488d 853e 61f8 4c3f 6815 b53e
00000260: 48d1 bfbe f2ad d0be bef2 a93e 6ee3 a5bc
00000270: a377 1d3c 02b4 333e 664b 303e b7de ba3d
00000280: a1ef 973e a6bf 0bbe b801 d6bc 867d 64be
00000290: 6bf4 d03d 324b ca3c 309b 80be a024 d53e
000002a0: cac3 1e3f 77d7 c7be d892 5abe bde4 fcbe
000002b0: e382 d4be f25d 9dbe c580 293e 8318 b83e
000002c0: 842c 30be 7cfa a03d 6041 edbe aef2 c83e
000002d0: 3c76 643e 996f fd3d 10aa d63e c010 a8ba
000002e0: fe9c 51be 4cc6 333e c895 d73e e8aa e13d
000002f0: 55e2 ed3e 0fe7 c33e 3975 323e 2bbf e33e
00000300: af12 603e f16e 34be e913 bbbd 11d6 46be
00000310: 0c33 083f b298 633e 681a 8b3e 29c9 f63e
00000320: 66e6 a1be f88d dc3e 17f3 39bf 49ce f53e
00000330: e838 633e 973f 70be 56d3 cdbe ef93 89be
00000340: 6efc 9abe c34c 773d cb52 f53e ee44 d63e
00000350: f0d8 20be 9379 fcbc 15be 113e ae94 b5be
00000360: f1a5 13be 203c f83c 8bae 3f3d b0fb ffbd
00000370: c396 f3bd 4f45 ce3e 27ca 303d b425 cb3e
00000380: ec74 ac3d 8c28 1e3f f58c cbbe 08a4 903e
00000390: 58af 533f 24de c13e 5ab0 6b3d b1f0 993e
000003a0: 38d9 8dbe 1444 e4be 41c0 18bc a239 813e
000003b0: 27db 0bbf 3fb4 673f 2d60 3a3f 6541 aa3e
000003c0: 2809 c0be 9ebf 473d 0c51 933e c916 e4be
000003d0: f5ca 1cbe 8e49 be3e cda9 ba3d 7295 033e
000003e0: 4a30 0dbf 4ab5 43be 149a ae3e 0632 d8be
000003f0: 2059 853e c533 ed3e 3c8c 023f 7216 8ebe
-0.05677137 0.22070526 0.091591366 -0.3072937 -0.4125266 0.07857825 0.015502445 0.25665238
0.058594596 0.44432473 0.38340512 -0.30651623 0.11075558 -0.0989321 0.064681366 0.10538929
-0.110822745 -0.39814854 0.48678908 0.058314487 -0.4793009 0.201942 -0.84591967 0.21424536
-0.055937354 0.12667374 0.30156097 -0.2882528 -0.41936308 0.11710182 0.84368294 -0.06981548
-0.1028984 -0.16066413 0.5817408 0.28805923 -0.31071135 0.021689028 -0.4268085 -0.73265576
0.29730606 -0.078943856 0.08000355 -0.43271655 0.25684103 -0.3220431 -0.23660186 0.3836327
0.345481 -0.34773234 0.084055215 -0.8929415 0.03805851 -0.23024385 0.35683757 0.2606606
-0.015978355 -0.2550486 -0.10830768 0.23688525 0.032245584 -0.13914253 -0.369646 -0.38976845
0.19302678 0.08546615 -0.038813565 -0.19311716 -0.38169476 -0.20037489 -0.3507187 0.0944977
-0.25487307 0.1342981 -0.17584725 -0.06837467 -0.04808809 -0.5361288 -0.005096182 0.12542747
-0.09188082 -0.09225191 -0.4783261 0.10092967 -0.39432126 -0.042144977 0.22396702 0.22903648
-0.023000373 -0.5933812 -0.23723242 -0.39111528 0.40018576 0.13551162 0.35928765 0.026708938
-0.00948776 -0.12960581 0.055136196 0.36109456 0.19220716 -0.17952912 0.1199748 0.3939517
-0.12655264 0.19846502 -0.0908578 0.2957106 0.46833247 -0.368138 0.26105034 -0.017333444
0.00037297123 0.30168965 0.30755568 -0.0856431 -0.3300895 -0.17893766 0.13074133 0.06535185
-0.17717858 -0.24400395 -0.17080359 -0.14831406 0.16536267 -0.10266934 0.008894318 -0.1023247
-0.11599234 0.3890588 -0.19040675 -0.10343873 -0.18673697 -0.1407369 -0.18906106 0.20739193
-0.4512793 -0.38478902 -0.0782788 -0.10456416 0.19086832 0.18310198 0.1921693 0.029257055
0.19585386 -0.25604683 -0.39638585 0.13206364 0.12044578 0.26084352 0.80066496 0.35367894
-0.37464356 -0.4075771 0.3319301 -0.020250048 0.009611043 0.17549136 0.17216262 0.09124511
0.2967501 -0.13647327 -0.026123866 -0.22313508 0.10202869 0.024694059 -0.251184 0.41629505
0.620175 -0.39031574 -0.21345079 -0.49393263 -0.4150611 -0.30735737 0.16553028 0.359562
-0.17204481 0.07860276 -0.4633894 0.3924765 0.22310728 0.12374801 0.41926622 -0.0012822375
-0.20470044 0.17556113 0.42106462 0.11018926 0.4646174 0.3826222 0.1742753 0.44481787
0.21882127 -0.17620446 -0.09134657 -0.19417597 0.5320289 0.22226217 0.27168584 0.48200348
-0.31621093 0.43077064 -0.7263655 0.48008946 0.22189677 -0.23461758 -0.402003 -0.26870677
-0.30270714 0.06037594 0.4791473 0.41849464 -0.15707755 -0.03081969 0.14232667 -0.35464996
-0.1441877 0.030302107 0.046797317 -0.124991775 -0.1189399 0.40287253 0.043161537 0.39677203
0.084207386 0.6178062 -0.3975598 0.28250146 0.8268943 0.37864792 0.05754123 0.30066445
-0.27704787 -0.4458319 -0.009323181 0.25239283 -0.54631275 0.9050941 0.72803 0.33253017
-0.37506986 0.048766725 0.2877277 -0.44548634 -0.15311797 0.37165493 0.09114418 0.12849978
-0.5515181 -0.19112125 0.34101927 -0.42225665 0.2604456 0.4632856 0.5099523 -0.277515

enc.base_model.weight_in f4 [15, 16]
00000000: d4ae b6bd 8e90 c03e bc9f 8a3c ae01 dabe
00000010: fc11 0fbf 189c d83e 1730 afbe d206 95be
00000020: 0ff6 00bf 4284 f0bc 142b 21bf a4f4 e7be
00000030: 9e7d 353f cc20 453f c1c8 34be 97ab d83b
00000040: c6ab 073f 47cf f33e 4fcc e7be 4a58 aabe
00000050: c6e1 9b3e b120 bebe 1a6f a9be cb75 d93e
00000060: c1fc 8dbd 7537 013e 6626 d53e 33d4 c5be
00000070: abf6 c4be 0bda 8fbe 8c98 f33e 5b1e f7bd
00000080: a245 21bf 70ce 593d 6b9b eb3e de73 df3e
00000090: 32fd 5cbe 1e6d 253f 4165 943e 548b 0fbf
000000a0: 32ea 083f d460 ffbc 3d86 aebd 8834 5d3f
000000b0: 21fd 633e 7b7d 403f 1695 193f b883 c4be
000000c0: e795 05bf aad9 5cbe 6adc f1be a1fc 153f
000000d0: 1409 9ebd c885 b6be 25d2 6d3e 3de6 91be
000000e0: a306 0ebf a776 963d b5ab ce3e 5598 b93e
000000f0: a8c3 1f3e d2fc 703e 3fdd 923e 0aad 52be
00000100: 79e4 a53e 1b15 45be c940 8ebe 8820 0c3f
00000110: ae93 d03b 7363 c5be 419b c03d 24dd eb3e
00000120: 0bce 5a3f 1b46 debe 536c 2d3e 408e 0b3f
00000130: a515 633e c2ee 54be 4fb3 32bd 7ab5 c2be
00000140: c0ad 633f 3676 9abe 49f1 9c3e 9b18 8ebe
00000150: fe11 9fbe e561 4bbd 05e8 fa3e dbdf 04bf
00000160: 4c6f 2e3e fa62 d73d 60c5 6cbe 987e ac3d
00000170: e27e 14bf 8460 42bf e6ea 80bc 2778 fc3e
00000180: c6a1 8ebb 593c ab3d 3d2d 463c dff9 243c
00000190: 5425 023e 2fd5 cdbe e9d8 fd3d 385b b9be
000001a0: d587 9abe 00af 033e 6912 073f 7837 b33d
000001b0: 8665 1d3c d371 993e f1ab 2f3e 1c7f 8abe
000001c0: 143d b63e 51b5 103e b841 0bbf cec9 9b3e
000001d0: f5ff 083f 2cdf b53d 960c 73be 9438 f93e
000001e0: 39a8 86be ec28 d33e 9ce8 813d 4b86 713f
000001f0: 0558 91bf 637f 1fbc abc0 04be 11a4 e93e
00000200: 1f4b 003f b6f6 7b3e 5550 e2bc 8f50 a2be
00000210: 3ccb 453f a5f4 42be 58e2 d53e 1551 ac3e
00000220: 3649 f8bd 6a39 afbd b7e5 05be 2ec0 0f3d
00000230: e637 e73d 7aeb fa3d a6cc 0e3f 0e83 9ebe
00000240: f66f c83e bac0 33be b036 443e e387 90be
00000250: ce8a b13e f8d4 a43f b339 bc3e fb9c 1a3f
00000260: 60e2 a3bf dd44 213e ca5f d93d 5311 0c3e
00000270: 7573 b1be d54a c8bd 36ff 7f3e 04cc 99bd
00000280: 02c6 fdbb b18c b63e 8db5 033f e021 dabe
00000290: cfc4 e0be 5acb dabe 6f91 95be 1b07 9ebe
000002a0: ba6e b3bf 6958 8d3e 0c6c 333e e84e 4abf
000002b0: d12d fdbd 7856 763e 98f6 b73e b22b 163c
000002c0: df04 3dbe e4d8 833d 6d5a 13bd 2da9 e0be
000002d0: 4c2c 8a3f aa24 063f 5511 de3e 90db aa3e
000002e0: 3591 f2be 2f28 d3be cbfc d8be b29c 25be
000002f0: 5081 59bf 13ef f53e 4550 c83e a330 bf3e
00000300: 6eda 89be fc90 e23d 5cec 13bf a103 a0be
00000310: b4e0 d7be 8038 0ebe e09f f6bd bdf5 3a3e
00000320: 6bee 123f d3b0 febe 5a60 51bf 2ddc 2dbd
00000330: 60b4 9a3d a261 d5bd bf1c ae3c 59ca ffbd
00000340: 1ae2 033c b7b1 a93e 68d8 603d 26f8 e43e
00000350: dd45 d73e 531e 4e3d e022 a2be 62d2 923e
00000360: 51f8 38bf 99f7 f6be abd6 d83e 90f9 27bf
00000370: ae42 ffbe dd45 843e 647e 26bf 09d1 353e
00000380: 4b25 163e e55d cb3d 1b5e 35bc cd51 12bf
00000390: c31d 103f c336 c03e 6ac8 873e 1c28 4a3c
000003a0: eb48 61bf a0aa 4ebe 2570 86bd f4e2 193f
000003b0: 7c27 573f f5d4 0a3f 6b4c 693e c563 ec3e
-0.089200646 0.37610286 0.01692187 -0.42579406 -0.55886817 0.4230659 -0.34216377 -0.29106766
-0.50375456 -0.02935994 -0.62956357 -0.45303833 0.708948 0.7700317 -0.17654707 0.006612252
0.5299648 0.47619078 -0.45273063 -0.33270484 0.3044569 -0.37134317 -0.33092576 0.4247268
-0.069329746 0.12618811 0.41630858 -0.38638458 -0.38469443 -0.2809604 0.47577322 -0.12066337
-0.62996876 0.05317539 0.46017012 0.43643087 -0.21580961 0.64619625 0.289835 -0.5607197
0.53482354 -0.031174101 -0.08521698 0.8640828 0.2226453 0.7519147 0.5999311 -0.38381743
-0.5218186 -0.21567407 -0.47238475 0.58588606 -0.07716575 -0.35648942 0.23224695 -0.2849597
-0.55478877 0.0734685 0.40365377 0.36249033 0.1560198 0.23533943 0.28684422 -0.20573822
0.32400873 -0.19246332 -0.27783802 0.5473714 0.006365261 -0.38552436 0.09404612 0.46067154
0.85470647 -0.4341286 0.16935854 0.5451393 0.22176225 -0.20794204 -0.043628033 -0.3802908
0.88936996 -0.30168313 0.30652836 -0.27753147 -0.31068414 -0.049653906 0.49005142 -0.51904076
0.17034644 0.10516925 -0.23122168 0.08422583 -0.5800611 -0.7592852 -0.015737008 0.4931042
-0.004352781 0.0836112 0.012095747 0.01006934 0.12709552 -0.4020171 0.12394888 -0.36202407
-0.30181757 0.12859726 0.52762467 0.08750814 0.009606725 0.29969653 0.17155434 -0.27050102
0.35593474 0.14131667 -0.54397154 0.30427402 0.5351556 0.08880457 -0.2373527 0.48675978
-0.2630022 0.41242158 0.06343195 0.9434554 -1.1354986 -0.009734961 -0.12964122 0.45632985
0.50114626 0.24605832 -0.027626196 -0.31702086 0.77263236 -0.19038637 0.4177425 0.3365561
-0.12123339 -0.08555873 -0.1307591 0.035095386 0.11289959 0.12251945 0.5578102 -0.30959362
0.3914792 -0.17553988 0.19161487 -0.28228673 0.34676212 1.2877493 0.3676277 0.60395783
-1.2803459 0.15748926 0.106139734 0.13678484 -0.346584 -0.09779898 0.24999699 -0.07509616
-0.0077445516 0.35654214 0.514489 -0.4260397 -0.43900153 -0.4273327 -0.2921252 -0.30864796
-1.4018166 0.27606514 0.17521685 -0.7902665 -0.123622544 0.24056423 0.35930324 0.009165691
-0.1845889 0.06437853 -0.03597491 -0.4387907 1.0794768 0.52399695 0.43372598 0.33370638
-0.4737641 -0.41241595 -0.42380366 -0.16173056 -0.8496294 0.48033962 0.3912374 0.37341794
-0.2692446 0.1106281 -0.5778253 -0.3125277 -0.42163622 -0.1388874 -0.120422125 0.18257804
0.57395047 -0.4974428 -0.81787646 -0.042446304 0.07553935 -0.104190126 0.021253942 -0.12489767
0.008049512 0.33143398 0.05489388 0.44720572 0.4204549 0.05032189 -0.31667233 0.28676134
-0.722539 -0.48235777 0.4235128 -0.6561518 -0.4985556 0.2583455 -0.65036607 0.17755522
0.14662664 0.09930018 -0.0110698 -0.5715607 0.5629541 0.3754178 0.2652009 0.012338664
-0.8800189 -0.20182276 -0.065643586 0.6011193 0.84044623 0.54231197 0.22783057 0.46169868

enc.base_model.weight_out f4 [15, 16]
00000000: bdea 673e 41eb ad3e 413c 97bf e49f 0a3f
00000010: 0980 913e 6f8d 283f f796 963e d815 1b3e
00000020: 2784 a03f dc0a ee3e 3947 3ebd 7c18 9b3f
00000030: 1e58 38bf dccd 173f 6162 503d 6421 0a3f
00000040: 2c5d c73e a0af 283d 3d44 44bd 6914 3d3f
00000050: c08e 3cbf 678b 13bf 9641 4cbe c845 bc3e
00000060: 6da8 773d 31b2 243c 33e6 7a3e fe88 2e3f
00000070: d0f8 2f3f e527 033f 9b4d 0ebe 56e5 fa3e
00000080: 9c17 0abf 18d4 0bbe 23d4 fabe d8a5 fc3e
00000090: 1d8d 8a3e 2c86 d83e d293 03bf d767 243e
000000a0: 8700 0c3f dec5 9cbe b697 09bd e850 483f
000000b0: 157e 9abe 9515 893e 8e97 bb3e fcc1 49be
000000c0: 2cde 8cbe d8fd bd3c 4511 b53d 3bd0 dbbe
000000d0: 598a e1bd 240a dfbd c0b5 7a3a b3ec 763e
000000e0: f035 053f 47f0 a33c b5f1 153f 553d 7bbf
000000f0: f0a7 43bf e518 e03c 3035 56bf 6134 c4be
00000100: c9c2 30bc ae46 52bd b2cf 6f3d ebd1 b93e
00000110: 212c 623e c553 6d3f 326f d9be fc6f dcbe
00000120: 55f5 043f 6dd8 17bf 220e 1cbd b41f bd3f
00000130: f1a9 023e 3bec 463e ab84 d5bd 55eb f4be
00000140: dd71 85be b626 0ebb 14e5 3e3e 12e7 993e
00000150: 4107 03be a5bd 04bc 6cd3 80bd 1732 a8be
00000160: c5fd dfbe 70b7 55bf cb55 413e 0ce1 053f
00000170: a8db 7f3d 72dd ce3e 1f82 34bf 61ad 6ebf
00000180: db6e c53d 9c97 753e 0c95 a7be 6a22 bd3e
00000190: 338e f63e c9dd c9be c067 113e 92d7 d4be
000001a0: 6ecf 84bf 64e6 2e3e cd2a 5f3e eea5 303e
000001b0: 18b0 163e d8a0 9ebe c9b2 80be eb4f bc3e
000001c0: 4efe 253f 015f f6be bb7e e2be 35f1 9abe
000001d0: 1041 de3e ca63 5abe 8cd4 ab3e 57fb 7a3d
000001e0: 8759 df3e 0467 c93e 08c9 14be 4557 9abe
000001f0: b919 58bf 4d48 d9be 9713 67be 55c4 d6be
00000200: cd27 853f 01c2 97be 11c7 093f 113c 433e
00000210: 242c 91be 51ea 683f 6d36 d53e f389 e93e
00000220: 0a59 67be 0445 e03d e0c5 913e a9f6 8f3f
00000230: e1ad 703e 9cf3 303f aaef c0be cdbb 0c3e
00000240: ce42 d4bd 1635 033e 7476 6dbd 807d 41be
00000250: 8825 f4bd 3908 a2bd 1fd5 d9be 3f44 063e
00000260: e760 843e 9034 4bbe 750f 5b3d dfb4 c23f
00000270: 6583 1d3f e466 27be a123 1cbf 73b5 b5be
00000280: 5072 e0be d1d0 e1be 7c2e cebe 303b cebe
00000290: 077b 193f 8f1d c6be 64ea e53e ee59 bb3d
000002a0: 37ba c5be d05c 2fbf d0b4 d93d b0df 2abd
000002b0: 2f63 693d a5af 91be c093 a53e 010a 9d3e
000002c0: 186c 78bc a2a0 1d3b e4d3 873e a346 d6be
000002d0: 6189 d6be cd1f 11bd 00e3 063f a0dc f33e
000002e0: 174b d2be 55ee 95bf 9fb0 aebe 4b0d 9f3f
000002f0: 7673 8c3f 1028 563f 0dfa f73d af61 ba3e
00000300: f7b1 993e be2f cabe af11 8b3e 7e9c adbe
00000310: 5419 0f3c 29af 08bf 03e0 a33e 8610 223e
00000320: a147 c9be e36c 61bf c36d 6abe 4a4a 0d3f
00000330: f0db a53e 3b01 eebe 15be 073f 35bd 05bb
00000340: aca1 35bf 9fd4 b93e e367 c43e d514 473c
00000350: f99c ce3e aaae 9ebe 857d 4abe 0a0c 093e
00000360: 059e 58be 40ab 533e 9cea c4be 188f e8be
00000370: 8316 243f 6279 1e3d 6bbd b53e 74d1 083d
00000380: 83d5 8bbf f083 80bd 20e8 43be 5ae7 7cbe
00000390: bc0a 833e cca9 fa3e 63ba d83e 3465 9cbe
000003a0: 1f75 83be 950d 2f3e b79b 81bf 5237 89bf
000003b0: 8025 8a3f efb6 ad3d 22b8 93bf cb9c 12be
0.2264814 0.33968547 -1.1815263 0.54150224 0.28417996 0.6584081 0.29412052 0.15145051
1.254033 0.4649266 -0.046454642 1.2116847 -0.72009456 0.5929849 0.05087507 0.539572
0.38938272 0.041183114 -0.04791664 0.7385927 -0.7365532 -0.57634586 -0.19946894 0.3677199
0.060463358 0.01005225 0.24501877 0.68177783 0.6873903 0.5123275 -0.13896792 0.49003094
-0.53942275 -0.13655126 -0.48989972 0.4934528 0.27060786 0.42289865 -0.5139743 0.16055237
0.54688305 -0.3061971 -0.03359195 0.78248453 -0.30174318 0.26774278 0.36639065 -0.19702905
-0.27513254 0.023192331 0.088411845 -0.42932305 -0.11012716 -0.10890606 0.0009563826 0.24113731
0.5203543 0.020012034 0.5857194 -0.9814046 -0.7642813 0.02735562 -0.8367491 -0.38321212
-0.010788628 -0.051336937 0.058547683 0.36292967 0.22087146 0.9270595 -0.42467648 -0.43054187
0.51936847 -0.59314615 -0.038099416 1.47753 0.1276014 0.19426052 -0.10425695 -0.47835794
-0.26063433 -0.0021690554 0.18642074 0.30059105 -0.12795736 -0.008101855 -0.062903255 -0.32850716
-0.43748298 -0.8348303 0.18880384 0.5229652 0.06246534 0.40403324 -0.7051105 -0.93233305
0.09640285 0.23983616 -0.327309 0.36940318 0.48155364 -0.3942702 0.14199734 -0.41570717
-1.0375803 0.17080075 0.21793671 0.17250797 0.14715612 -0.3098209 -0.25136402 0.36779723
0.64841163 -0.48119357 -0.44237313 -0.3026215 0.43409014 -0.21327129 0.33560598 0.061274853
0.4362299 0.39336407 -0.14529812 -0.30144706 -0.8441425 -0.42437974 -0.22566067 -0.41946664
1.0402771 -0.296402 0.53819376 0.19065882 -0.2835399 0.9098254 0.41643086 0.4561306
-0.2259256 0.10950664 0.2847128 1.124715 0.2350383 0.6912172 -0.3768285 0.13743515
-0.103643045 0.1281322 -0.057974294 -0.1889553 -0.11921221 -0.079117246 -0.4254541 0.13111971
0.2585518 -0.1984427 0.053481538 1.5211447 0.6152862 -0.16347843 -0.60991865 -0.35489997
-0.43837214 -0.44104627 -0.4026984 -0.4027953 0.5995335 -0.38694426 0.44905388 0.09148012
-0.38618633 -0.68500996 0.1063019 -0.04171723 0.056979354 -0.2845432 0.32339287 0.30671695
-0.01516249 0.0024052043 0.26528847 -0.41850767 -0.41901687 -0.03543072 0.52690125 0.4762926
-0.41072914 -1.1713358 -0.34119126 1.2425932 1.0972736 0.8365488 0.1210824 0.36402652
0.3001859 -0.3948955 0.2716193 -0.33908457 0.008734066 -0.53392273 0.32006845 0.15826616
-0.3931246 -0.8805677 -0.22893433 0.5519148 0.32394361 -0.46485314 0.5302442 -0.0020406966
-0.70949817 0.3629503 0.3836051 0.012150963 0.40354136 -0.30992633 -0.19774444 0.13383499
-0.2115403 0.20670795 -0.38460243 -0.45421672 0.6409685 0.03868998 0.35496077 0.033402875
-1.0924534 -0.06275165 -0.19131517 -0.24697629 0.25594127 0.4895767 0.42329702 -0.30545962
-0.25675294 0.17095025 -1.0125645 -1.0720007 1.0792694 0.084821574 -1.1540568 -0.14317624

enc.base_model.weight f4 [15, 30]
00000000: 494d f03d e190 9b3e 80dd 56be 71ca a6bd
00000010: e554 ca3e 8d61 293c 25a5 313e 8eeb b03e
00000020: 5329 2d3e f25e 233e 8dae 81bc 0c20 b3bd
00000030: 00c8 673e 36bf a1be 4460 7dbe a665 b33e
00000040: 72dc ef3e ce93 253e 43fa e8bc 13e7 96bd
00000050: c0c3 353e a172 8d3e 1fbd 74be c1bf 59be
00000060: fe85 2a3d bc05 ccbe d447 89be fc63 8ebd
00000070: 0457 753e 4f37 84bd a9df d03e b297 2b3e
00000080: 06ed 123e 7bab 4dbe 80ad 54bd 80cc aa3e
00000090: 7cd3 213a da50 7e3e a458 373e da94 97be
000000a0: ad03 ef3e 2c2b 1ebf 0ca3 103d b950 19bf
000000b0: 43db 15be a747 8a3e 7dea c0be 29c4 4bbe
000000c0: b072 ff3d 334f 2fbf 5412 ecbe bcf2 ad3e
000000d0: d51a 10bf 1258 1fbe 69af 393e 51c7 02bd
000000e0: 88e5 36be 6a01 cd3c 5b05 e63e ba80 13bf
000000f0: 091b 55be 1eef 8fbe 23e6 dc3d a609 033f
00000100: 2b86 fbbd 6be3 8dbe 8478 0c3e 7892 3ebe
00000110: 400c 8e3d 4533 aa3e 5db7 95be e9e6 16be
00000120: ba2b eebe 22ca 163e f313 083f cc89 cc3d
00000130: e709 ec3d 9c83 f23d 6931 b83e 9d4b 033f
00000140: 000d 5f3d 8632 013e 374e 9fbd 8a73 4a3d
00000150: b8d1 2d3f dd20 693e 960b db3e 3392 c83e
00000160: 6fd2 e4be 312c 533e 2706 c8be 7cc0 a83e
00000170: 7f34 d1bc dd88 c93c 45cc c7bd e7a7 003f
00000180: 5285 39be fa40 023f 6a09 29be 536b 853d
00000190: a45a b5be 26a2 82bd 2c1a da3e 795d 1bbe
000001a0: 118c e5bd 4b48 0c3f 5f75 643d 513a 47bd
000001b0: 7a78 a93e c28d f73e 71a5 c13d e54d 84be
000001c0: 0f00 d3be de90 c83e 67ca 933e 6ee8 833d
000001d0: dc7e 443f 239f 9dbe fcb0 debd bf53 99bf
000001e0: 50db 73be 3833 64be b4d8 9e3c fc93 f03d
000001f0: 8dd1 2a3e f1a3 16bf 0da9 c33e fdda ae3e
00000200: 7489 76bd 9d40 92be 193a cbbe 0289 30be
00000210: aeb9 abbe dade 3d3f 570c 5fbe 2488 3c3e
00000220: 142f b23e 0a18 8c3e a8cd e3be d05a 313f
00000230: 4818 d53e 7dcd a7bb 9462 54bf 04b4 04be
00000240: 3daa a73f 2e97 13be a971 6a3e b72c d83e
00000250: 1f03 463d 7c73 22bf 290c 8bbe 27dc abbe
00000260: 3b25 493f 04fb 203f d0fb 103e eaf9 7ebf
00000270: a21c f83d bffd ae3e b9de e5be 7369 babe
00000280: 7425 19bf 92ea 60be 5e48 ea3e d6aa b73e
00000290: 6b9a 5bbe 0b40 473e 1798 183e e05f a43d
000002a0: aa69 dd3e f9cc 03be 3c66 4bbe b6fa ad3e
000002b0: 48b2 43be 68b6 84bf 8463 a83e ce4f 89be
000002c0: 5f66 033f f089 e8be 8e86 a23e a752 c3bd
000002d0: ec88 afbc 65bc d13d 4e72 bcbc 23a9 a93e
000002e0: 1741 ae3e 9eaf 3bbe 011a 763e d7db e8bd
000002f0: fc8a e53d 9d15 de3d 759b 143f 6d4d fabe
00000300: cf7f 91bd 2310 c53e 42d9 0a3d 4deb 43be
00000310: 5c56 083e a092 023e cbed f63e bd13 30bf
00000320: 7aa2 f73e cce6 f63d b61b cc3e 6cbb fd3e
00000330: de4e 22bf eb19 883e 6d67 1fbf ddee adbc
00000340: 8cb8 15be f0a2 1abf 4709 093e 0c1f 003d
00000350: e879 b83e dd74 543e 3aa5 93be ecb5 09bf
00000360: 3aae 763e f783 1f3f 5ffb b2be f31b 0c3d
00000370: 482d eb3e 454a 8abb 1a3c 343e 30d6 943e
00000380: e430 8b3e 941b dd3e 77d3 1f3e 6155 d53d
00000390: 4ec8 cc3e 106e 373f 6861 d33d f201 91bd
000003a0: fe72 2dbf 4106 643e 4968 0e3d 46e4 48be
000003b0: fd5a 493d 9970 303d c62f f1be 1021 72bf
000003c0: f420 7d3e a64d 8a3e cc14 9bbd fe06 37bc
000003d0: af74 ad3e aac7 5f3e e59b cebd 2b24 393e
000003e0: 18da 283e 49f1 ea3d ab35 59bd 50f1 a03e
000003f0: af7c 82bd 075c 00be d1ae 93be d800 723e
0.11733491 0.3038397 -0.20982933 -0.081440814 0.39517894 0.010338199 0.17348154 0.34554714
0.16910295 0.15954188 -0.015830303 -0.08746347 0.22634888 -0.31591195 -0.24743754 0.3503849
0.46847874 0.16169664 -0.028439647 -0.07368293 0.17750454 0.27626517 -0.23900269 -0.21264555
0.04163169 -0.39848125 -0.26812613 -0.06952664 0.23958975 -0.06455862 0.4079564 0.16757086
0.1434823 -0.20084946 -0.051923275 0.33359146 0.0006173176 0.2483553 0.17904907 -0.29605752
0.46682492 -0.61784625 0.035311744 -0.598888 -0.14634423 0.2700779 -0.376789 -0.19899048
0.12473047 -0.68480223 -0.46107733 0.33974254 -0.5629094 -0.1556094 0.1813332 -0.031928364
-0.17860997 0.025025088 0.4492596 -0.57618296 -0.20811094 -0.2811212 0.107860826 0.511866
-0.1228145 -0.2771257 0.13717848 -0.18610561 0.0693593 0.3324224 -0.29241458 -0.14736523
-0.46517736 0.14725545 0.5315544 0.0998722 0.11525326 0.11841509 0.35975197 0.5128725
0.054455757 0.1261693 -0.0777859 0.049426593 0.6789813 0.22766443 0.42782277 0.3917404
-0.44691798 0.20622326 -0.39067194 0.32959354 -0.025537727 0.024601394 -0.09755758 0.502562
-0.18117264 0.50880396 -0.16507497 0.06514611 -0.35420716 -0.063785836 0.42598093 -0.15172376
-0.11208356 0.5479781 0.055775996 -0.0486396 0.3309973 0.4835034 0.094553836 -0.2584068
-0.41210982 0.39173025 0.28865358 0.06440817 0.7675607 -0.30785474 -0.10873601 -1.1978682
-0.2381413 -0.22285163 0.019390441 0.11746976 0.166815 -0.58843905 0.38214913 0.3415145
-0.06018968 -0.2856492 -0.39692762 -0.17239764 -0.335401 0.7416817 -0.21782051 0.18411309
0.34801543 0.2736209 -0.4449284 0.69279194 0.41620088 -0.0051209317 -0.8296292 -0.12959296
1.3098828 -0.14413139 0.2289492 0.42221615 0.04834282 -0.63457465 -0.27157715 -0.335664
0.78572434 0.6288302 0.14158559 -0.9960009 0.12114836 0.34177968 -0.44896486 -0.36408576
-0.59822774 -0.21964481 0.45758337 0.35872525 -0.21445625 0.19458024 0.14901768 0.08026099
0.43244678 -0.1287116 -0.19863218 0.3398034 -0.19110978 -1.0368166 0.32888424 -0.268187
0.5132808 -0.45417738 0.31743282 -0.09537249 -0.021427594 0.102410115 -0.023003723 0.33136854
0.34034035 -0.18328711 0.24033357 -0.11370056 0.1120815 0.10843966 0.5804971 -0.48887196
-0.07104456 0.38488874 0.0338986 -0.19132729 0.13314193 0.12751245 0.48228297 -0.6878012
0.48366147 0.1205574 0.39864892 0.49557054 -0.6340159 0.26582274 -0.6226719 -0.021232063
-0.1462118 -0.6040487 0.13382445 0.03127961 0.36030507 0.20747705 -0.28836995 -0.53793216
0.240899 0.6231074 -0.34957406 0.034206342 0.45932984 -0.0042202794 0.17601052 0.29069662
0.27185738 0.43185103 0.15608011 0.10416675 0.3999657 0.7165232 0.10321313 -0.07080449
-0.6775359 0.2226801 0.034767423 -0.1961833 0.04915904 0.04307613 -0.4710676 -0.945817
0.24719602 0.27012366 -0.07572326 -0.011171101 0.33878085 0.2185351 -0.10088328 0.18080203
0.16489446 0.11471803 -0.053029697 0.31434107 -0.06371438 -0.12535106 -0.28844312 0.23633134

enc.base_model.features.weight f4 [2356, 8]
00000000: 0000 803f 0000 0000 0000 0000 0000 0000
00000010: 0000 0000 0000 0000 0000 0000 0000 0000
00000020: 0000 803f 0000 0000 0000 0000 0000 0000
00000030: 0000 0000 0000 0000 0000 0000 0000 0000
00000040: 0000 803f 0000 0000 0000 0000 0000 0000
00000050: 0000 0000 0000 0000 0000 0000 0000 0000
00000060: 0000 803f 0000 0000 0000 0000 0000 0000
00000070: 0000 0000 0000 0000 0000 0000 0000 0000
00000080: 0000 803f 0000 0000 0000 0000 0000 0000
00000090: 0000 0000 0000 0000 0000 0000 0000 0000
000000a0: 0000 803f 0000 0000 0000 0000 0000 0000
000000b0: 0000 0000 0000 0000 0000 0000 0000 0000
000000c0: 0000 803f 0000 0000 0000 0000 0000 0000
000000d0: 0000 0000 0000 0000 0000 0000 0000 0000
000000e0: 0000 803f 0000 0000 0000 0000 0000 0000
000000f0: 0000 0000 0000 0000 0000 0000 0000 0000
00000100: 0000 803f 0000 0000 0000 0000 0000 0000
00000110: 0000 0000 0000 0000 0000 0000 0000 0000
00000120: 0000 803f 0000 0000 0000 0000 0000 0000
00000130: 0000 0000 0000 0000 0000 0000 0000 0000
00000140: 0000 803f 0000 0000 0000 0000 0000 0000
00000150: 0000 0000 0000 0000 0000 0000 0000 0000
00000160: 0000 803f 0000 0000 0000 0000 0000 0000
00000170: 0000 0000 0000 0000 0000 0000 0000 0000
00000180: 0000 803f 0000 0000 0000 0000 0000 0000
00000190: 0000 0000 0000 0000 0000 0000 0000 0000
000001a0: 0000 803f 0000 0000 0000 0000 0000 0000
000001b0: 0000 0000 0000 0000 0000 0000 0000 0000
000001c0: 0000 803f 0000 0000 0000 0000 0000 0000
000001d0: 0000 0000 0000 0000 0000 0000 0000 0000
000001e0: 0000 803f 0000 0000 0000 0000 0000 0000
000001f0: 0000 0000 0000 0000 0000 0000 0000 0000
00000200: 0000 803f 0000 0000 0000 0000 0000 0000
00000210: 0000 0000 0000 0000 0000 0000 0000 0000
00000220: 0000 803f 0000 0000 0000 0000 0000 0000
00000230: 0000 0000 0000 0000 0000 0000 0000 0000
00000240: 0000 803f 0000 0000 0000 0000 0000 0000
00000250: 0000 0000 0000 0000 0000 0000 0000 0000
00000260: 0000 803f 0000 0000 0000 0000 0000 0000
00000270: 0000 0000 0000 0000 0000 0000 0000 0000
00000280: 0000 803f 0000 0000 0000 0000 0000 0000
00000290: 0000 0000 0000 0000 0000 0000 0000 0000
000002a0: 0000 803f 0000 0000 0000 0000 0000 0000
000002b0: 0000 0000 0000 0000 0000 0000 0000 0000
000002c0: 0000 803f 0000 0000 0000 0000 0000 0000
000002d0: 0000 0000 0000 0000 0000 0000 0000 0000
000002e0: 0000 803f 0000 0000 0000 0000 0000 0000
000002f0: 0000 0000 0000 0000 0000 0000 0000 0000
00000300: 0000 803f 0000 0000 0000 0000 0000 0000
00000310: 0000 0000 0000 0000 0000 0000 0000 0000
00000320: 0000 803f 0000 0000 0000 0000 0000 0000
00000330: 0000 0000 0000 0000 0000 0000 0000 0000
00000340: 0000 803f 0000 0000 0000 0000 0000 0000
00000350: 0000 0000 0000 0000 0000 0000 0000 0000
00000360: 0000 0000 0000 803f 0000 0000 0000 0000
00000370: 0000 0000 0000 0000 0000 0000 0000 0000
00000380: 0000 0000 0000 803f 0000 0000 0000 0000
00000390: 0000 0000 0000 0000 0000 0000 0000 0000
000003a0: 0000 0000 0000 803f 0000 0000 0000 0000
000003b0: 0000 0000 0000 0000 0000 0000 0000 0000
000003c0: 0000 0000 0000 803f 0000 0000 0000 0000
000003d0: 0000 0000 0000 0000 0000 0000 0000 0000
000003e0: 0000 0000 0000 803f 0000 0000 0000 0000
000003f0: 0000 0000 0000 0000 0000 0000 0000 0000
1.0 0.0 0.0 0.0 0.0 0.0 0.0 0.0
1.0 0.0 0.0 0.0 0.0 0.0 0.0 0.0
1.0 0.0 0.0 0.0 0.0 0.0 0.0 0.0
1.0 0.0 0.0 0.0 0.0 0.0 0.0 0.0
1.0 0.0 0.0 0.0 0.0 0.0 0.0 0.0
1.0 0.0 0.0 0.0 0.0 0.0 0.0 0.0
1.0 0.0 0.0 0.0 0.0 0.0 0.0 0.0
1.0 0.0 0.0 0.0 0.0 0.0 0.0 0.0
1.0 0.0 0.0 0.0 0.0 0.0 0.0 0.0
1.0 0.0 0.0 0.0 0.0 0.0 0.0 0.0
1.0 0.0 0.0 0.0 0.0 0.0 0.0 0.0
1.0 0.0 0.0 0.0 0.0 0.0 0.0 0.0
1.0 0.0 0.0 0.0 0.0 0.0 0.0 0.0
1.0 0.0 0.0 0.0 0.0 0.0 0.0 0.0
1.0 0.0 0.0 0.0 0.0 0.0 0.0 0.0
1.0 0.0 0.0 0.0 0.0 0.0 0.0 0.0
1.0 0.0 0.0 0.0 0.0 0.0 0.0 0.0
1.0 0.0 0.0 0.0 0.0 0.0 0.0 0.0
1.0 0.0 0.0 0.0 0.0 0.0 0.0 0.0
1.0 0.0 0.0 0.0 0.0 0.0 0.0 0.0
1.0 0.0 0.0 0.0 0.0 0.0 0.0 0.0
1.0 0.0 0.0 0.0 0.0 0.0 0.0 0.0
1.0 0.0 0.0 0.0 0.0 0.0 0.0 0.0
1.0 0.0 0.0 0.0 0.0 0.0 0.0 0.0
1.0 0.0 0.0 0.0 0.0 0.0 0.0 0.0
1.0 0.0 0.0 0.0 0.0 0.0 0.0 0.0
1.0 0.0 0.0 0.0 0.0 0.0 0.0 0.0
0.0 1.0 0.0 0.0 0.0 0.0 0.0 0.0
0.0 1.0 0.0 0.0 0.0 0.0 0.0 0.0
0.0 1.0 0.0 0.0 0.0 0.0 0.0 0.0
0.0 1.0 0.0 0.0 0.0 0.0 0.0 0.0
0.0 1.0 0.0 0.0 0.0 0.0 0.0 0.0

enc.base_model.aggregator.features.weight f4 [2356, 8]
00000000: 0000 803f 0000 0000 0000 0000 0000 0000
00000010: 0000 0000 0000 0000 0000 0000 0000 0000
00000020: 0000 803f 0000 0000 0000 0000 0000 0000
00000030: 0000 0000 0000 0000 0000 0000 0000 0000
00000040: 0000 803f 0000 0000 0000 0000 0000 0000
00000050: 0000 0000 0000 0000 0000 0000 0000 0000
00000060: 0000 803f 0000 0000 0000 0000 0000 0000
00000070: 0000 0000 0000 0000 0000 0000 0000 0000
00000080: 0000 803f 0000 0000 0000 0000 0000 0000
00000090: 0000 0000 0000 0000 0000 0000 0000 0000
000000a0: 0000 803f 0000 0000 0000 0000 0000 0000
000000b0: 0000 0000 0000 0000 0000 0000 0000 0000
000000c0: 0000 803f 0000 0000 0000 0000 0000 0000
000000d0: 0000 0000 0000 0000 0000 0000 0000 0000
000000e0: 0000 803f 0000 0000 0000 0000 0000 0000
000000f0: 0000 0000 0000 0000 0000 0000 0000 0000
00000100: 0000 803f 0000 0000 0000 0000 0000 0000
00000110: 0000 0000 0000 0000 0000 0000 0000 0000
00000120: 0000 803f 0000 0000 0000 0000 0000 0000
00000130: 0000 0000 0000 0000 0000 0000 0000 0000
00000140: 0000 803f 0000 0000 0000 0000 0000 0000
00000150: 0000 0000 0000 0000 0000 0000 0000 0000
00000160: 0000 803f 0000 0000 0000 0000 0000 0000
00000170: 0000 0000 0000 0000 0000 0000 0000 0000
00000180: 0000 803f 0000 0000 0000 0000 0000 0000
00000190: 0000 0000 0000 0000 0000 0000 0000 0000
000001a0: 0000 803f 0000 0000 0000 0000 0000 0000
000001b0: 0000 0000 0000 0000 0000 0000 0000 0000
000001c0: 0000 803f 0000 0000 0000 0000 0000 0000
000001d0: 0000 0000 0000 0000 0000 0000 0000 0000
000001e0: 0000 803f 0000 0000 0000 0000 0000 0000
000001f0: 0000 0000 0000 0000 0000 0000 0000 0000
00000200: 0000 803f 0000 0000 0000 0000 0000 0000
00000210: 0000 0000 0000 0000 0000 0000 0000 0000
00000220: 0000 803f 0000 0000 0000 0000 0000 0000
00000230: 0000 0000 0000 0000 0000 0000 0000 0000
00000240: 0000 803f 0000 0000 0000 0000 0000 0000
00000250: 0000 0000 0000 0000 0000 0000 0000 0000
00000260: 0000 803f 0000 0000 0000 0000 0000 0000
00000270: 0000 0000 0000 0000 0000 0000 0000 0000
00000280: 0000 803f 0000 0000 0000 0000 0000 0000
00000290: 0000 0000 0000 0000 0000 0000 0000 0000
000002a0: 0000 803f 0000 0000 0000 0000 0000 0000
000002b0: 0000 0000 0000 0000 0000 0000 0000 0000
000002c0: 0000 803f 0000 0000 0000 0000 0000 0000
000002d0: 0000 0000 0000 0000 0000 0000 0000 0000
000002e0: 0000 803f 0000 0000 0000 0000 0000 0000
000002f0: 0000 0000 0000 0000 0000 0000 0000 0000
00000300: 0000 803f 0000 0000 0000 0000 0000 0000
00000310: 0000 0000 0000 0000 0000 0000 0000 0000
00000320: 0000 803f 0000 0000 0000 0000 0000 0000
00000330: 0000 0000 0000 0000 0000 0000 0000 0000
00000340: 0000 803f 0000 0000 0000 0000 0000 0000
00000350: 0000 0000 0000 0000 0000 0000 0000 0000
00000360: 0000 0000 0000 803f 0000 0000 0000 0000
00000370: 0000 0000 0000 0000 0000 0000 0000 0000
00000380: 0000 0000 0000 803f 0000 0000 0000 0000
00000390: 0000 0000 0000 0000 0000 0000 0000 0000
000003a0: 0000 0000 0000 803f 0000 0000 0000 0000
000003b0: 0000 0000 0000 0000 0000 0000 0000 0000
000003c0: 0000 0000 0000 803f 0000 0000 0000 0000
000003d0: 0000 0000 0000 0000 0000 0000 0000 0000
000003e0: 0000 0000 0000 803f 0000 0000 0000 0000
000003f0: 0000 0000 0000 0000 0000 0000 0000 0000
1.0 0.0 0.0 0.0 0.0 0.0 0.0 0.0
1.0 0.0 0.0 0.0 0.0 0.0 0.0 0.0
1.0 0.0 0.0 0.0 0.0 0.0 0.0 0.0
1.0 0.0 0.0 0.0 0.0 0.0 0.0 0.0
1.0 0.0 0.0 0.0 0.0 0.0 0.0 0.0
1.0 0.0 0.0 0.0 0.0 0.0 0.0 0.0
1.0 0.0 0.0 0.0 0.0 0.0 0.0 0.0
1.0 0.0 0.0 0.0 0.0 0.0 0.0 0.0
1.0 0.0 0.0 0.0 0.0 0.0 0.0 0.0
1.0 0.0 0.0 0.0 0.0 0.0 0.0 0.0
1.0 0.0 0.0 0.0 0.0 0.0 0.0 0.0
1.0 0.0 0.0 0.0 0.0 0.0 0.0 0.0
1.0 0.0 0.0 0.0 0.0 0.0 0.0 0.0
1.0 0.0 0.0 0.0 0.0 0.0 0.0 0.0
1.0 0.0 0.0 0.0 0.0 0.0 0.0 0.0
1.0 0.0 0.0 0.0 0.0 0.0 0.0 0.0
1.0 0.0 0.0 0.0 0.0 0.0 0.0 0.0
1.0 0.0 0.0 0.0 0.0 0.0 0.0 0.0
1.0 0.0 0.0 0.0 0.0 0.0 0.0 0.0
1.0 0.0 0.0 0.0 0.0 0.0 0.0 0.0
1.0 0.0 0.0 0.0 0.0 0.0 0.0 0.0
1.0 0.0 0.0 0.0 0.0 0.0 0.0 0.0
1.0 0.0 0.0 0.0 0.0 0.0 0.0 0.0
1.0 0.0 0.0 0.0 0.0 0.0 0.0 0.0
1.0 0.0 0.0 0.0 0.0 0.0 0.0 0.0
1.0 0.0 0.0 0.0 0.0 0.0 0.0 0.0
1.0 0.0 0.0 0.0 0.0 0.0 0.0 0.0
0.0 1.0 0.0 0.0 0.0 0.0 0.0 0.0
0.0 1.0 0.0 0.0 0.0 0.0 0.0 0.0
0.0 1.0 0.0 0.0 0.0 0.0 0.0 0.0
0.0 1.0 0.0 0.0 0.0 0.0 0.0 0.0
0.0 1.0 0.0 0.0 0.0 0.0 0.0 0.0
